saved_model_schema_version: 1
meta_graphs {
  meta_info_def {
    stripped_op_list {
      op {
        name: "Add"
        input_arg {
          name: "x"
          type_attr: "T"
        }
        input_arg {
          name: "y"
          type_attr: "T"
        }
        output_arg {
          name: "z"
          type_attr: "T"
        }
        attr {
          name: "T"
          type: "type"
          allowed_values {
            list {
              type: DT_HALF
              type: DT_FLOAT
              type: DT_DOUBLE
              type: DT_UINT8
              type: DT_INT8
              type: DT_INT16
              type: DT_INT32
              type: DT_INT64
              type: DT_COMPLEX64
              type: DT_COMPLEX128
              type: DT_STRING
            }
          }
        }
      }
      op {
        name: "ApplyAdam"
        input_arg {
          name: "var"
          type_attr: "T"
          is_ref: true
        }
        input_arg {
          name: "m"
          type_attr: "T"
          is_ref: true
        }
        input_arg {
          name: "v"
          type_attr: "T"
          is_ref: true
        }
        input_arg {
          name: "beta1_power"
          type_attr: "T"
        }
        input_arg {
          name: "beta2_power"
          type_attr: "T"
        }
        input_arg {
          name: "lr"
          type_attr: "T"
        }
        input_arg {
          name: "beta1"
          type_attr: "T"
        }
        input_arg {
          name: "beta2"
          type_attr: "T"
        }
        input_arg {
          name: "epsilon"
          type_attr: "T"
        }
        input_arg {
          name: "grad"
          type_attr: "T"
        }
        output_arg {
          name: "out"
          type_attr: "T"
          is_ref: true
        }
        attr {
          name: "T"
          type: "type"
          allowed_values {
            list {
              type: DT_FLOAT
              type: DT_DOUBLE
              type: DT_INT64
              type: DT_INT32
              type: DT_UINT8
              type: DT_UINT16
              type: DT_INT16
              type: DT_INT8
              type: DT_COMPLEX64
              type: DT_COMPLEX128
              type: DT_QINT8
              type: DT_QUINT8
              type: DT_QINT32
              type: DT_HALF
            }
          }
        }
        attr {
          name: "use_locking"
          type: "bool"
          default_value {
            b: false
          }
        }
        attr {
          name: "use_nesterov"
          type: "bool"
          default_value {
            b: false
          }
        }
      }
      op {
        name: "Assign"
        input_arg {
          name: "ref"
          type_attr: "T"
          is_ref: true
        }
        input_arg {
          name: "value"
          type_attr: "T"
        }
        output_arg {
          name: "output_ref"
          type_attr: "T"
          is_ref: true
        }
        attr {
          name: "T"
          type: "type"
        }
        attr {
          name: "validate_shape"
          type: "bool"
          default_value {
            b: true
          }
        }
        attr {
          name: "use_locking"
          type: "bool"
          default_value {
            b: true
          }
        }
        allows_uninitialized_input: true
      }
      op {
        name: "BiasAdd"
        input_arg {
          name: "value"
          type_attr: "T"
        }
        input_arg {
          name: "bias"
          type_attr: "T"
        }
        output_arg {
          name: "output"
          type_attr: "T"
        }
        attr {
          name: "T"
          type: "type"
          allowed_values {
            list {
              type: DT_FLOAT
              type: DT_DOUBLE
              type: DT_INT64
              type: DT_INT32
              type: DT_UINT8
              type: DT_UINT16
              type: DT_INT16
              type: DT_INT8
              type: DT_COMPLEX64
              type: DT_COMPLEX128
              type: DT_QINT8
              type: DT_QUINT8
              type: DT_QINT32
              type: DT_HALF
            }
          }
        }
        attr {
          name: "data_format"
          type: "string"
          default_value {
            s: "NHWC"
          }
          allowed_values {
            list {
              s: "NHWC"
              s: "NCHW"
            }
          }
        }
      }
      op {
        name: "BiasAddGrad"
        input_arg {
          name: "out_backprop"
          type_attr: "T"
        }
        output_arg {
          name: "output"
          type_attr: "T"
        }
        attr {
          name: "T"
          type: "type"
          allowed_values {
            list {
              type: DT_FLOAT
              type: DT_DOUBLE
              type: DT_INT64
              type: DT_INT32
              type: DT_UINT8
              type: DT_UINT16
              type: DT_INT16
              type: DT_INT8
              type: DT_COMPLEX64
              type: DT_COMPLEX128
              type: DT_QINT8
              type: DT_QUINT8
              type: DT_QINT32
              type: DT_HALF
            }
          }
        }
        attr {
          name: "data_format"
          type: "string"
          default_value {
            s: "NHWC"
          }
          allowed_values {
            list {
              s: "NHWC"
              s: "NCHW"
            }
          }
        }
      }
      op {
        name: "BroadcastGradientArgs"
        input_arg {
          name: "s0"
          type_attr: "T"
        }
        input_arg {
          name: "s1"
          type_attr: "T"
        }
        output_arg {
          name: "r0"
          type_attr: "T"
        }
        output_arg {
          name: "r1"
          type_attr: "T"
        }
        attr {
          name: "T"
          type: "type"
          default_value {
            type: DT_INT32
          }
          allowed_values {
            list {
              type: DT_INT32
              type: DT_INT64
            }
          }
        }
      }
      op {
        name: "Cast"
        input_arg {
          name: "x"
          type_attr: "SrcT"
        }
        output_arg {
          name: "y"
          type_attr: "DstT"
        }
        attr {
          name: "SrcT"
          type: "type"
        }
        attr {
          name: "DstT"
          type: "type"
        }
      }
      op {
        name: "ConcatV2"
        input_arg {
          name: "values"
          type_attr: "T"
          number_attr: "N"
        }
        input_arg {
          name: "axis"
          type_attr: "Tidx"
        }
        output_arg {
          name: "output"
          type_attr: "T"
        }
        attr {
          name: "N"
          type: "int"
          has_minimum: true
          minimum: 2
        }
        attr {
          name: "T"
          type: "type"
        }
        attr {
          name: "Tidx"
          type: "type"
          default_value {
            type: DT_INT32
          }
          allowed_values {
            list {
              type: DT_INT32
              type: DT_INT64
            }
          }
        }
      }
      op {
        name: "Const"
        output_arg {
          name: "output"
          type_attr: "dtype"
        }
        attr {
          name: "value"
          type: "tensor"
        }
        attr {
          name: "dtype"
          type: "type"
        }
      }
      op {
        name: "Conv2D"
        input_arg {
          name: "input"
          type_attr: "T"
        }
        input_arg {
          name: "filter"
          type_attr: "T"
        }
        output_arg {
          name: "output"
          type_attr: "T"
        }
        attr {
          name: "T"
          type: "type"
          allowed_values {
            list {
              type: DT_HALF
              type: DT_FLOAT
            }
          }
        }
        attr {
          name: "strides"
          type: "list(int)"
        }
        attr {
          name: "use_cudnn_on_gpu"
          type: "bool"
          default_value {
            b: true
          }
        }
        attr {
          name: "padding"
          type: "string"
          allowed_values {
            list {
              s: "SAME"
              s: "VALID"
            }
          }
        }
        attr {
          name: "data_format"
          type: "string"
          default_value {
            s: "NHWC"
          }
          allowed_values {
            list {
              s: "NHWC"
              s: "NCHW"
            }
          }
        }
      }
      op {
        name: "Conv2DBackpropFilter"
        input_arg {
          name: "input"
          type_attr: "T"
        }
        input_arg {
          name: "filter_sizes"
          type: DT_INT32
        }
        input_arg {
          name: "out_backprop"
          type_attr: "T"
        }
        output_arg {
          name: "output"
          type_attr: "T"
        }
        attr {
          name: "T"
          type: "type"
          allowed_values {
            list {
              type: DT_HALF
              type: DT_FLOAT
            }
          }
        }
        attr {
          name: "strides"
          type: "list(int)"
        }
        attr {
          name: "use_cudnn_on_gpu"
          type: "bool"
          default_value {
            b: true
          }
        }
        attr {
          name: "padding"
          type: "string"
          allowed_values {
            list {
              s: "SAME"
              s: "VALID"
            }
          }
        }
        attr {
          name: "data_format"
          type: "string"
          default_value {
            s: "NHWC"
          }
          allowed_values {
            list {
              s: "NHWC"
              s: "NCHW"
            }
          }
        }
      }
      op {
        name: "Conv2DBackpropInput"
        input_arg {
          name: "input_sizes"
          type: DT_INT32
        }
        input_arg {
          name: "filter"
          type_attr: "T"
        }
        input_arg {
          name: "out_backprop"
          type_attr: "T"
        }
        output_arg {
          name: "output"
          type_attr: "T"
        }
        attr {
          name: "T"
          type: "type"
          allowed_values {
            list {
              type: DT_HALF
              type: DT_FLOAT
            }
          }
        }
        attr {
          name: "strides"
          type: "list(int)"
        }
        attr {
          name: "use_cudnn_on_gpu"
          type: "bool"
          default_value {
            b: true
          }
        }
        attr {
          name: "padding"
          type: "string"
          allowed_values {
            list {
              s: "SAME"
              s: "VALID"
            }
          }
        }
        attr {
          name: "data_format"
          type: "string"
          default_value {
            s: "NHWC"
          }
          allowed_values {
            list {
              s: "NHWC"
              s: "NCHW"
            }
          }
        }
      }
      op {
        name: "DynamicStitch"
        input_arg {
          name: "indices"
          type: DT_INT32
          number_attr: "N"
        }
        input_arg {
          name: "data"
          type_attr: "T"
          number_attr: "N"
        }
        output_arg {
          name: "merged"
          type_attr: "T"
        }
        attr {
          name: "N"
          type: "int"
          has_minimum: true
          minimum: 1
        }
        attr {
          name: "T"
          type: "type"
        }
      }
      op {
        name: "FIFOQueueV2"
        output_arg {
          name: "handle"
          type: DT_RESOURCE
        }
        attr {
          name: "component_types"
          type: "list(type)"
          has_minimum: true
          minimum: 1
        }
        attr {
          name: "shapes"
          type: "list(shape)"
          default_value {
            list {
            }
          }
          has_minimum: true
        }
        attr {
          name: "capacity"
          type: "int"
          default_value {
            i: -1
          }
        }
        attr {
          name: "container"
          type: "string"
          default_value {
            s: ""
          }
        }
        attr {
          name: "shared_name"
          type: "string"
          default_value {
            s: ""
          }
        }
        is_stateful: true
      }
      op {
        name: "Fill"
        input_arg {
          name: "dims"
          type: DT_INT32
        }
        input_arg {
          name: "value"
          type_attr: "T"
        }
        output_arg {
          name: "output"
          type_attr: "T"
        }
        attr {
          name: "T"
          type: "type"
        }
      }
      op {
        name: "FloorDiv"
        input_arg {
          name: "x"
          type_attr: "T"
        }
        input_arg {
          name: "y"
          type_attr: "T"
        }
        output_arg {
          name: "z"
          type_attr: "T"
        }
        attr {
          name: "T"
          type: "type"
          allowed_values {
            list {
              type: DT_HALF
              type: DT_FLOAT
              type: DT_DOUBLE
              type: DT_UINT8
              type: DT_INT8
              type: DT_UINT16
              type: DT_INT16
              type: DT_INT32
              type: DT_INT64
              type: DT_COMPLEX64
              type: DT_COMPLEX128
            }
          }
        }
      }
      op {
        name: "FloorMod"
        input_arg {
          name: "x"
          type_attr: "T"
        }
        input_arg {
          name: "y"
          type_attr: "T"
        }
        output_arg {
          name: "z"
          type_attr: "T"
        }
        attr {
          name: "T"
          type: "type"
          allowed_values {
            list {
              type: DT_INT32
              type: DT_INT64
              type: DT_FLOAT
              type: DT_DOUBLE
            }
          }
        }
      }
      op {
        name: "GreaterEqual"
        input_arg {
          name: "x"
          type_attr: "T"
        }
        input_arg {
          name: "y"
          type_attr: "T"
        }
        output_arg {
          name: "z"
          type: DT_BOOL
        }
        attr {
          name: "T"
          type: "type"
          allowed_values {
            list {
              type: DT_FLOAT
              type: DT_DOUBLE
              type: DT_INT32
              type: DT_INT64
              type: DT_UINT8
              type: DT_INT16
              type: DT_INT8
              type: DT_UINT16
              type: DT_HALF
            }
          }
        }
      }
      op {
        name: "Identity"
        input_arg {
          name: "input"
          type_attr: "T"
        }
        output_arg {
          name: "output"
          type_attr: "T"
        }
        attr {
          name: "T"
          type: "type"
        }
      }
      op {
        name: "LessEqual"
        input_arg {
          name: "x"
          type_attr: "T"
        }
        input_arg {
          name: "y"
          type_attr: "T"
        }
        output_arg {
          name: "z"
          type: DT_BOOL
        }
        attr {
          name: "T"
          type: "type"
          allowed_values {
            list {
              type: DT_FLOAT
              type: DT_DOUBLE
              type: DT_INT32
              type: DT_INT64
              type: DT_UINT8
              type: DT_INT16
              type: DT_INT8
              type: DT_UINT16
              type: DT_HALF
            }
          }
        }
      }
      op {
        name: "Log"
        input_arg {
          name: "x"
          type_attr: "T"
        }
        output_arg {
          name: "y"
          type_attr: "T"
        }
        attr {
          name: "T"
          type: "type"
          allowed_values {
            list {
              type: DT_HALF
              type: DT_FLOAT
              type: DT_DOUBLE
              type: DT_COMPLEX64
              type: DT_COMPLEX128
            }
          }
        }
      }
      op {
        name: "LogicalNot"
        input_arg {
          name: "x"
          type: DT_BOOL
        }
        output_arg {
          name: "y"
          type: DT_BOOL
        }
      }
      op {
        name: "MatMul"
        input_arg {
          name: "a"
          type_attr: "T"
        }
        input_arg {
          name: "b"
          type_attr: "T"
        }
        output_arg {
          name: "product"
          type_attr: "T"
        }
        attr {
          name: "transpose_a"
          type: "bool"
          default_value {
            b: false
          }
        }
        attr {
          name: "transpose_b"
          type: "bool"
          default_value {
            b: false
          }
        }
        attr {
          name: "T"
          type: "type"
          allowed_values {
            list {
              type: DT_HALF
              type: DT_FLOAT
              type: DT_DOUBLE
              type: DT_INT32
              type: DT_COMPLEX64
              type: DT_COMPLEX128
            }
          }
        }
      }
      op {
        name: "MaxPool"
        input_arg {
          name: "input"
          type_attr: "T"
        }
        output_arg {
          name: "output"
          type_attr: "T"
        }
        attr {
          name: "T"
          type: "type"
          default_value {
            type: DT_FLOAT
          }
          allowed_values {
            list {
              type: DT_FLOAT
              type: DT_DOUBLE
              type: DT_INT32
              type: DT_INT64
              type: DT_UINT8
              type: DT_INT16
              type: DT_INT8
              type: DT_UINT16
              type: DT_HALF
            }
          }
        }
        attr {
          name: "ksize"
          type: "list(int)"
          has_minimum: true
          minimum: 4
        }
        attr {
          name: "strides"
          type: "list(int)"
          has_minimum: true
          minimum: 4
        }
        attr {
          name: "padding"
          type: "string"
          allowed_values {
            list {
              s: "SAME"
              s: "VALID"
            }
          }
        }
        attr {
          name: "data_format"
          type: "string"
          default_value {
            s: "NHWC"
          }
          allowed_values {
            list {
              s: "NHWC"
              s: "NCHW"
            }
          }
        }
      }
      op {
        name: "MaxPoolGrad"
        input_arg {
          name: "orig_input"
          type_attr: "T"
        }
        input_arg {
          name: "orig_output"
          type_attr: "T"
        }
        input_arg {
          name: "grad"
          type_attr: "T"
        }
        output_arg {
          name: "output"
          type_attr: "T"
        }
        attr {
          name: "ksize"
          type: "list(int)"
          has_minimum: true
          minimum: 4
        }
        attr {
          name: "strides"
          type: "list(int)"
          has_minimum: true
          minimum: 4
        }
        attr {
          name: "padding"
          type: "string"
          allowed_values {
            list {
              s: "SAME"
              s: "VALID"
            }
          }
        }
        attr {
          name: "data_format"
          type: "string"
          default_value {
            s: "NHWC"
          }
          allowed_values {
            list {
              s: "NHWC"
              s: "NCHW"
            }
          }
        }
        attr {
          name: "T"
          type: "type"
          default_value {
            type: DT_FLOAT
          }
          allowed_values {
            list {
              type: DT_FLOAT
              type: DT_DOUBLE
              type: DT_INT32
              type: DT_INT64
              type: DT_UINT8
              type: DT_INT16
              type: DT_INT8
              type: DT_UINT16
              type: DT_HALF
            }
          }
        }
      }
      op {
        name: "Maximum"
        input_arg {
          name: "x"
          type_attr: "T"
        }
        input_arg {
          name: "y"
          type_attr: "T"
        }
        output_arg {
          name: "z"
          type_attr: "T"
        }
        attr {
          name: "T"
          type: "type"
          allowed_values {
            list {
              type: DT_HALF
              type: DT_FLOAT
              type: DT_DOUBLE
              type: DT_INT32
              type: DT_INT64
            }
          }
        }
        is_commutative: true
      }
      op {
        name: "Mean"
        input_arg {
          name: "input"
          type_attr: "T"
        }
        input_arg {
          name: "reduction_indices"
          type_attr: "Tidx"
        }
        output_arg {
          name: "output"
          type_attr: "T"
        }
        attr {
          name: "keep_dims"
          type: "bool"
          default_value {
            b: false
          }
        }
        attr {
          name: "T"
          type: "type"
          allowed_values {
            list {
              type: DT_FLOAT
              type: DT_DOUBLE
              type: DT_INT64
              type: DT_INT32
              type: DT_UINT8
              type: DT_UINT16
              type: DT_INT16
              type: DT_INT8
              type: DT_COMPLEX64
              type: DT_COMPLEX128
              type: DT_QINT8
              type: DT_QUINT8
              type: DT_QINT32
              type: DT_HALF
            }
          }
        }
        attr {
          name: "Tidx"
          type: "type"
          default_value {
            type: DT_INT32
          }
          allowed_values {
            list {
              type: DT_INT32
              type: DT_INT64
            }
          }
        }
      }
      op {
        name: "MergeV2Checkpoints"
        input_arg {
          name: "checkpoint_prefixes"
          type: DT_STRING
        }
        input_arg {
          name: "destination_prefix"
          type: DT_STRING
        }
        attr {
          name: "delete_old_dirs"
          type: "bool"
          default_value {
            b: true
          }
        }
        is_stateful: true
      }
      op {
        name: "Minimum"
        input_arg {
          name: "x"
          type_attr: "T"
        }
        input_arg {
          name: "y"
          type_attr: "T"
        }
        output_arg {
          name: "z"
          type_attr: "T"
        }
        attr {
          name: "T"
          type: "type"
          allowed_values {
            list {
              type: DT_HALF
              type: DT_FLOAT
              type: DT_DOUBLE
              type: DT_INT32
              type: DT_INT64
            }
          }
        }
        is_commutative: true
      }
      op {
        name: "Mul"
        input_arg {
          name: "x"
          type_attr: "T"
        }
        input_arg {
          name: "y"
          type_attr: "T"
        }
        output_arg {
          name: "z"
          type_attr: "T"
        }
        attr {
          name: "T"
          type: "type"
          allowed_values {
            list {
              type: DT_HALF
              type: DT_FLOAT
              type: DT_DOUBLE
              type: DT_UINT8
              type: DT_INT8
              type: DT_UINT16
              type: DT_INT16
              type: DT_INT32
              type: DT_INT64
              type: DT_COMPLEX64
              type: DT_COMPLEX128
            }
          }
        }
        is_commutative: true
      }
      op {
        name: "Neg"
        input_arg {
          name: "x"
          type_attr: "T"
        }
        output_arg {
          name: "y"
          type_attr: "T"
        }
        attr {
          name: "T"
          type: "type"
          allowed_values {
            list {
              type: DT_HALF
              type: DT_FLOAT
              type: DT_DOUBLE
              type: DT_INT32
              type: DT_INT64
              type: DT_COMPLEX64
              type: DT_COMPLEX128
            }
          }
        }
      }
      op {
        name: "NoOp"
      }
      op {
        name: "Pack"
        input_arg {
          name: "values"
          type_attr: "T"
          number_attr: "N"
        }
        output_arg {
          name: "output"
          type_attr: "T"
        }
        attr {
          name: "N"
          type: "int"
          has_minimum: true
          minimum: 1
        }
        attr {
          name: "T"
          type: "type"
        }
        attr {
          name: "axis"
          type: "int"
          default_value {
            i: 0
          }
        }
      }
      op {
        name: "Placeholder"
        output_arg {
          name: "output"
          type_attr: "dtype"
        }
        attr {
          name: "dtype"
          type: "type"
        }
        attr {
          name: "shape"
          type: "shape"
          default_value {
            shape {
              unknown_rank: true
            }
          }
        }
      }
      op {
        name: "Prod"
        input_arg {
          name: "input"
          type_attr: "T"
        }
        input_arg {
          name: "reduction_indices"
          type_attr: "Tidx"
        }
        output_arg {
          name: "output"
          type_attr: "T"
        }
        attr {
          name: "keep_dims"
          type: "bool"
          default_value {
            b: false
          }
        }
        attr {
          name: "T"
          type: "type"
          allowed_values {
            list {
              type: DT_FLOAT
              type: DT_DOUBLE
              type: DT_INT64
              type: DT_INT32
              type: DT_UINT8
              type: DT_UINT16
              type: DT_INT16
              type: DT_INT8
              type: DT_COMPLEX64
              type: DT_COMPLEX128
              type: DT_QINT8
              type: DT_QUINT8
              type: DT_QINT32
              type: DT_HALF
            }
          }
        }
        attr {
          name: "Tidx"
          type: "type"
          default_value {
            type: DT_INT32
          }
          allowed_values {
            list {
              type: DT_INT32
              type: DT_INT64
            }
          }
        }
      }
      op {
        name: "QueueDequeueV2"
        input_arg {
          name: "handle"
          type: DT_RESOURCE
        }
        output_arg {
          name: "components"
          type_list_attr: "component_types"
        }
        attr {
          name: "component_types"
          type: "list(type)"
          has_minimum: true
          minimum: 1
        }
        attr {
          name: "timeout_ms"
          type: "int"
          default_value {
            i: -1
          }
        }
        is_stateful: true
      }
      op {
        name: "QueueEnqueueV2"
        input_arg {
          name: "handle"
          type: DT_RESOURCE
        }
        input_arg {
          name: "components"
          type_list_attr: "Tcomponents"
        }
        attr {
          name: "Tcomponents"
          type: "list(type)"
          has_minimum: true
          minimum: 1
        }
        attr {
          name: "timeout_ms"
          type: "int"
          default_value {
            i: -1
          }
        }
        is_stateful: true
      }
      op {
        name: "RandomStandardNormal"
        input_arg {
          name: "shape"
          type_attr: "T"
        }
        output_arg {
          name: "output"
          type_attr: "dtype"
        }
        attr {
          name: "seed"
          type: "int"
          default_value {
            i: 0
          }
        }
        attr {
          name: "seed2"
          type: "int"
          default_value {
            i: 0
          }
        }
        attr {
          name: "dtype"
          type: "type"
          allowed_values {
            list {
              type: DT_HALF
              type: DT_FLOAT
              type: DT_DOUBLE
            }
          }
        }
        attr {
          name: "T"
          type: "type"
          allowed_values {
            list {
              type: DT_INT32
              type: DT_INT64
            }
          }
        }
        is_stateful: true
      }
      op {
        name: "RandomUniform"
        input_arg {
          name: "shape"
          type_attr: "T"
        }
        output_arg {
          name: "output"
          type_attr: "dtype"
        }
        attr {
          name: "seed"
          type: "int"
          default_value {
            i: 0
          }
        }
        attr {
          name: "seed2"
          type: "int"
          default_value {
            i: 0
          }
        }
        attr {
          name: "dtype"
          type: "type"
          allowed_values {
            list {
              type: DT_HALF
              type: DT_FLOAT
              type: DT_DOUBLE
            }
          }
        }
        attr {
          name: "T"
          type: "type"
          allowed_values {
            list {
              type: DT_INT32
              type: DT_INT64
            }
          }
        }
        is_stateful: true
      }
      op {
        name: "Range"
        input_arg {
          name: "start"
          type_attr: "Tidx"
        }
        input_arg {
          name: "limit"
          type_attr: "Tidx"
        }
        input_arg {
          name: "delta"
          type_attr: "Tidx"
        }
        output_arg {
          name: "output"
          type_attr: "Tidx"
        }
        attr {
          name: "Tidx"
          type: "type"
          default_value {
            type: DT_INT32
          }
          allowed_values {
            list {
              type: DT_FLOAT
              type: DT_DOUBLE
              type: DT_INT32
              type: DT_INT64
            }
          }
        }
      }
      op {
        name: "RealDiv"
        input_arg {
          name: "x"
          type_attr: "T"
        }
        input_arg {
          name: "y"
          type_attr: "T"
        }
        output_arg {
          name: "z"
          type_attr: "T"
        }
        attr {
          name: "T"
          type: "type"
          allowed_values {
            list {
              type: DT_HALF
              type: DT_FLOAT
              type: DT_DOUBLE
              type: DT_UINT8
              type: DT_INT8
              type: DT_UINT16
              type: DT_INT16
              type: DT_INT32
              type: DT_INT64
              type: DT_COMPLEX64
              type: DT_COMPLEX128
            }
          }
        }
      }
      op {
        name: "Reciprocal"
        input_arg {
          name: "x"
          type_attr: "T"
        }
        output_arg {
          name: "y"
          type_attr: "T"
        }
        attr {
          name: "T"
          type: "type"
          allowed_values {
            list {
              type: DT_HALF
              type: DT_FLOAT
              type: DT_DOUBLE
              type: DT_INT32
              type: DT_INT64
              type: DT_COMPLEX64
              type: DT_COMPLEX128
            }
          }
        }
      }
      op {
        name: "Relu"
        input_arg {
          name: "features"
          type_attr: "T"
        }
        output_arg {
          name: "activations"
          type_attr: "T"
        }
        attr {
          name: "T"
          type: "type"
          allowed_values {
            list {
              type: DT_FLOAT
              type: DT_DOUBLE
              type: DT_INT32
              type: DT_INT64
              type: DT_UINT8
              type: DT_INT16
              type: DT_INT8
              type: DT_UINT16
              type: DT_HALF
            }
          }
        }
      }
      op {
        name: "ReluGrad"
        input_arg {
          name: "gradients"
          type_attr: "T"
        }
        input_arg {
          name: "features"
          type_attr: "T"
        }
        output_arg {
          name: "backprops"
          type_attr: "T"
        }
        attr {
          name: "T"
          type: "type"
          allowed_values {
            list {
              type: DT_FLOAT
              type: DT_DOUBLE
              type: DT_INT32
              type: DT_INT64
              type: DT_UINT8
              type: DT_INT16
              type: DT_INT8
              type: DT_UINT16
              type: DT_HALF
            }
          }
        }
      }
      op {
        name: "Reshape"
        input_arg {
          name: "tensor"
          type_attr: "T"
        }
        input_arg {
          name: "shape"
          type_attr: "Tshape"
        }
        output_arg {
          name: "output"
          type_attr: "T"
        }
        attr {
          name: "T"
          type: "type"
        }
        attr {
          name: "Tshape"
          type: "type"
          default_value {
            type: DT_INT32
          }
          allowed_values {
            list {
              type: DT_INT32
              type: DT_INT64
            }
          }
        }
      }
      op {
        name: "RestoreV2"
        input_arg {
          name: "prefix"
          type: DT_STRING
        }
        input_arg {
          name: "tensor_names"
          type: DT_STRING
        }
        input_arg {
          name: "shape_and_slices"
          type: DT_STRING
        }
        output_arg {
          name: "tensors"
          type_list_attr: "dtypes"
        }
        attr {
          name: "dtypes"
          type: "list(type)"
          has_minimum: true
          minimum: 1
        }
        is_stateful: true
      }
      op {
        name: "SaveV2"
        input_arg {
          name: "prefix"
          type: DT_STRING
        }
        input_arg {
          name: "tensor_names"
          type: DT_STRING
        }
        input_arg {
          name: "shape_and_slices"
          type: DT_STRING
        }
        input_arg {
          name: "tensors"
          type_list_attr: "dtypes"
        }
        attr {
          name: "dtypes"
          type: "list(type)"
          has_minimum: true
          minimum: 1
        }
        is_stateful: true
      }
      op {
        name: "Select"
        input_arg {
          name: "condition"
          type: DT_BOOL
        }
        input_arg {
          name: "t"
          type_attr: "T"
        }
        input_arg {
          name: "e"
          type_attr: "T"
        }
        output_arg {
          name: "output"
          type_attr: "T"
        }
        attr {
          name: "T"
          type: "type"
        }
      }
      op {
        name: "ShardedFilename"
        input_arg {
          name: "basename"
          type: DT_STRING
        }
        input_arg {
          name: "shard"
          type: DT_INT32
        }
        input_arg {
          name: "num_shards"
          type: DT_INT32
        }
        output_arg {
          name: "filename"
          type: DT_STRING
        }
      }
      op {
        name: "Softmax"
        input_arg {
          name: "logits"
          type_attr: "T"
        }
        output_arg {
          name: "softmax"
          type_attr: "T"
        }
        attr {
          name: "T"
          type: "type"
          allowed_values {
            list {
              type: DT_HALF
              type: DT_FLOAT
              type: DT_DOUBLE
            }
          }
        }
      }
      op {
        name: "StridedSlice"
        input_arg {
          name: "input"
          type_attr: "T"
        }
        input_arg {
          name: "begin"
          type_attr: "Index"
        }
        input_arg {
          name: "end"
          type_attr: "Index"
        }
        input_arg {
          name: "strides"
          type_attr: "Index"
        }
        output_arg {
          name: "output"
          type_attr: "T"
        }
        attr {
          name: "T"
          type: "type"
        }
        attr {
          name: "Index"
          type: "type"
          allowed_values {
            list {
              type: DT_INT32
              type: DT_INT64
            }
          }
        }
        attr {
          name: "begin_mask"
          type: "int"
          default_value {
            i: 0
          }
        }
        attr {
          name: "end_mask"
          type: "int"
          default_value {
            i: 0
          }
        }
        attr {
          name: "ellipsis_mask"
          type: "int"
          default_value {
            i: 0
          }
        }
        attr {
          name: "new_axis_mask"
          type: "int"
          default_value {
            i: 0
          }
        }
        attr {
          name: "shrink_axis_mask"
          type: "int"
          default_value {
            i: 0
          }
        }
      }
      op {
        name: "StridedSliceGrad"
        input_arg {
          name: "shape"
          type_attr: "Index"
        }
        input_arg {
          name: "begin"
          type_attr: "Index"
        }
        input_arg {
          name: "end"
          type_attr: "Index"
        }
        input_arg {
          name: "strides"
          type_attr: "Index"
        }
        input_arg {
          name: "dy"
          type_attr: "T"
        }
        output_arg {
          name: "output"
          type_attr: "T"
        }
        attr {
          name: "T"
          type: "type"
        }
        attr {
          name: "Index"
          type: "type"
          allowed_values {
            list {
              type: DT_INT32
              type: DT_INT64
            }
          }
        }
        attr {
          name: "begin_mask"
          type: "int"
          default_value {
            i: 0
          }
        }
        attr {
          name: "end_mask"
          type: "int"
          default_value {
            i: 0
          }
        }
        attr {
          name: "ellipsis_mask"
          type: "int"
          default_value {
            i: 0
          }
        }
        attr {
          name: "new_axis_mask"
          type: "int"
          default_value {
            i: 0
          }
        }
        attr {
          name: "shrink_axis_mask"
          type: "int"
          default_value {
            i: 0
          }
        }
      }
      op {
        name: "StringJoin"
        input_arg {
          name: "inputs"
          type: DT_STRING
          number_attr: "N"
        }
        output_arg {
          name: "output"
          type: DT_STRING
        }
        attr {
          name: "N"
          type: "int"
          has_minimum: true
          minimum: 1
        }
        attr {
          name: "separator"
          type: "string"
          default_value {
            s: ""
          }
        }
      }
      op {
        name: "Sub"
        input_arg {
          name: "x"
          type_attr: "T"
        }
        input_arg {
          name: "y"
          type_attr: "T"
        }
        output_arg {
          name: "z"
          type_attr: "T"
        }
        attr {
          name: "T"
          type: "type"
          allowed_values {
            list {
              type: DT_HALF
              type: DT_FLOAT
              type: DT_DOUBLE
              type: DT_INT32
              type: DT_INT64
              type: DT_COMPLEX64
              type: DT_COMPLEX128
            }
          }
        }
      }
      op {
        name: "Sum"
        input_arg {
          name: "input"
          type_attr: "T"
        }
        input_arg {
          name: "reduction_indices"
          type_attr: "Tidx"
        }
        output_arg {
          name: "output"
          type_attr: "T"
        }
        attr {
          name: "keep_dims"
          type: "bool"
          default_value {
            b: false
          }
        }
        attr {
          name: "T"
          type: "type"
          allowed_values {
            list {
              type: DT_FLOAT
              type: DT_DOUBLE
              type: DT_INT64
              type: DT_INT32
              type: DT_UINT8
              type: DT_UINT16
              type: DT_INT16
              type: DT_INT8
              type: DT_COMPLEX64
              type: DT_COMPLEX128
              type: DT_QINT8
              type: DT_QUINT8
              type: DT_QINT32
              type: DT_HALF
            }
          }
        }
        attr {
          name: "Tidx"
          type: "type"
          default_value {
            type: DT_INT32
          }
          allowed_values {
            list {
              type: DT_INT32
              type: DT_INT64
            }
          }
        }
      }
      op {
        name: "Tile"
        input_arg {
          name: "input"
          type_attr: "T"
        }
        input_arg {
          name: "multiples"
          type_attr: "Tmultiples"
        }
        output_arg {
          name: "output"
          type_attr: "T"
        }
        attr {
          name: "T"
          type: "type"
        }
        attr {
          name: "Tmultiples"
          type: "type"
          default_value {
            type: DT_INT32
          }
          allowed_values {
            list {
              type: DT_INT32
              type: DT_INT64
            }
          }
        }
      }
      op {
        name: "VariableV2"
        output_arg {
          name: "ref"
          type_attr: "dtype"
          is_ref: true
        }
        attr {
          name: "shape"
          type: "shape"
        }
        attr {
          name: "dtype"
          type: "type"
        }
        attr {
          name: "container"
          type: "string"
          default_value {
            s: ""
          }
        }
        attr {
          name: "shared_name"
          type: "string"
          default_value {
            s: ""
          }
        }
        is_stateful: true
      }
    }
    tags: "serve"
    tensorflow_version: "1.3.0"
    tensorflow_git_version: "b\'unknown\'"
  }
  graph_def {
    node {
      name: "zeros"
      op: "Const"
      attr {
        key: "_output_shapes"
        value {
          list {
            shape {
              dim {
                size: 1
              }
              dim {
                size: 1
              }
              dim {
                size: 124
              }
              dim {
                size: 1
              }
            }
          }
        }
      }
      attr {
        key: "dtype"
        value {
          type: DT_FLOAT
        }
      }
      attr {
        key: "value"
        value {
          tensor {
            dtype: DT_FLOAT
            tensor_shape {
              dim {
                size: 1
              }
              dim {
                size: 1
              }
              dim {
                size: 124
              }
              dim {
                size: 1
              }
            }
            float_val: 0.0
          }
        }
      }
    }
    node {
      name: "Variable"
      op: "VariableV2"
      attr {
        key: "_output_shapes"
        value {
          list {
            shape {
              dim {
                size: 1
              }
              dim {
                size: 1
              }
              dim {
                size: 124
              }
              dim {
                size: 1
              }
            }
          }
        }
      }
      attr {
        key: "container"
        value {
          s: ""
        }
      }
      attr {
        key: "dtype"
        value {
          type: DT_FLOAT
        }
      }
      attr {
        key: "shape"
        value {
          shape {
            dim {
              size: 1
            }
            dim {
              size: 1
            }
            dim {
              size: 124
            }
            dim {
              size: 1
            }
          }
        }
      }
      attr {
        key: "shared_name"
        value {
          s: ""
        }
      }
    }
    node {
      name: "Variable/Assign"
      op: "Assign"
      input: "Variable"
      input: "zeros"
      attr {
        key: "T"
        value {
          type: DT_FLOAT
        }
      }
      attr {
        key: "_class"
        value {
          list {
            s: "loc:@Variable"
          }
        }
      }
      attr {
        key: "_output_shapes"
        value {
          list {
            shape {
              dim {
                size: 1
              }
              dim {
                size: 1
              }
              dim {
                size: 124
              }
              dim {
                size: 1
              }
            }
          }
        }
      }
      attr {
        key: "use_locking"
        value {
          b: true
        }
      }
      attr {
        key: "validate_shape"
        value {
          b: true
        }
      }
    }
    node {
      name: "Variable/read"
      op: "Identity"
      input: "Variable"
      attr {
        key: "T"
        value {
          type: DT_FLOAT
        }
      }
      attr {
        key: "_class"
        value {
          list {
            s: "loc:@Variable"
          }
        }
      }
      attr {
        key: "_output_shapes"
        value {
          list {
            shape {
              dim {
                size: 1
              }
              dim {
                size: 1
              }
              dim {
                size: 124
              }
              dim {
                size: 1
              }
            }
          }
        }
      }
    }
    node {
      name: "zeros_1"
      op: "Const"
      attr {
        key: "_output_shapes"
        value {
          list {
            shape {
              dim {
                size: 1
              }
              dim {
                size: 1
              }
              dim {
                size: 56
              }
              dim {
                size: 2
              }
            }
          }
        }
      }
      attr {
        key: "dtype"
        value {
          type: DT_FLOAT
        }
      }
      attr {
        key: "value"
        value {
          tensor {
            dtype: DT_FLOAT
            tensor_shape {
              dim {
                size: 1
              }
              dim {
                size: 1
              }
              dim {
                size: 56
              }
              dim {
                size: 2
              }
            }
            float_val: 0.0
          }
        }
      }
    }
    node {
      name: "Variable_1"
      op: "VariableV2"
      attr {
        key: "_output_shapes"
        value {
          list {
            shape {
              dim {
                size: 1
              }
              dim {
                size: 1
              }
              dim {
                size: 56
              }
              dim {
                size: 2
              }
            }
          }
        }
      }
      attr {
        key: "container"
        value {
          s: ""
        }
      }
      attr {
        key: "dtype"
        value {
          type: DT_FLOAT
        }
      }
      attr {
        key: "shape"
        value {
          shape {
            dim {
              size: 1
            }
            dim {
              size: 1
            }
            dim {
              size: 56
            }
            dim {
              size: 2
            }
          }
        }
      }
      attr {
        key: "shared_name"
        value {
          s: ""
        }
      }
    }
    node {
      name: "Variable_1/Assign"
      op: "Assign"
      input: "Variable_1"
      input: "zeros_1"
      attr {
        key: "T"
        value {
          type: DT_FLOAT
        }
      }
      attr {
        key: "_class"
        value {
          list {
            s: "loc:@Variable_1"
          }
        }
      }
      attr {
        key: "_output_shapes"
        value {
          list {
            shape {
              dim {
                size: 1
              }
              dim {
                size: 1
              }
              dim {
                size: 56
              }
              dim {
                size: 2
              }
            }
          }
        }
      }
      attr {
        key: "use_locking"
        value {
          b: true
        }
      }
      attr {
        key: "validate_shape"
        value {
          b: true
        }
      }
    }
    node {
      name: "Variable_1/read"
      op: "Identity"
      input: "Variable_1"
      attr {
        key: "T"
        value {
          type: DT_FLOAT
        }
      }
      attr {
        key: "_class"
        value {
          list {
            s: "loc:@Variable_1"
          }
        }
      }
      attr {
        key: "_output_shapes"
        value {
          list {
            shape {
              dim {
                size: 1
              }
              dim {
                size: 1
              }
              dim {
                size: 56
              }
              dim {
                size: 2
              }
            }
          }
        }
      }
    }
    node {
      name: "Placeholder"
      op: "Placeholder"
      attr {
        key: "_output_shapes"
        value {
          list {
            shape {
              dim {
                size: 1
              }
              dim {
                size: 1
              }
              dim {
                size: 124
              }
              dim {
                size: 1
              }
            }
          }
        }
      }
      attr {
        key: "dtype"
        value {
          type: DT_FLOAT
        }
      }
      attr {
        key: "shape"
        value {
          shape {
            dim {
              size: 1
            }
            dim {
              size: 1
            }
            dim {
              size: 124
            }
            dim {
              size: 1
            }
          }
        }
      }
    }
    node {
      name: "Placeholder_1"
      op: "Placeholder"
      attr {
        key: "_output_shapes"
        value {
          list {
            shape {
              dim {
                size: 1
              }
              dim {
                size: 1
              }
              dim {
                size: 56
              }
              dim {
                size: 2
              }
            }
          }
        }
      }
      attr {
        key: "dtype"
        value {
          type: DT_FLOAT
        }
      }
      attr {
        key: "shape"
        value {
          shape {
            dim {
              size: 1
            }
            dim {
              size: 1
            }
            dim {
              size: 56
            }
            dim {
              size: 2
            }
          }
        }
      }
    }
    node {
      name: "Assign"
      op: "Assign"
      input: "Variable"
      input: "Placeholder"
      attr {
        key: "T"
        value {
          type: DT_FLOAT
        }
      }
      attr {
        key: "_class"
        value {
          list {
            s: "loc:@Variable"
          }
        }
      }
      attr {
        key: "_output_shapes"
        value {
          list {
            shape {
              dim {
                size: 1
              }
              dim {
                size: 1
              }
              dim {
                size: 124
              }
              dim {
                size: 1
              }
            }
          }
        }
      }
      attr {
        key: "use_locking"
        value {
          b: true
        }
      }
      attr {
        key: "validate_shape"
        value {
          b: true
        }
      }
    }
    node {
      name: "Assign_1"
      op: "Assign"
      input: "Variable_1"
      input: "Placeholder_1"
      attr {
        key: "T"
        value {
          type: DT_FLOAT
        }
      }
      attr {
        key: "_class"
        value {
          list {
            s: "loc:@Variable_1"
          }
        }
      }
      attr {
        key: "_output_shapes"
        value {
          list {
            shape {
              dim {
                size: 1
              }
              dim {
                size: 1
              }
              dim {
                size: 56
              }
              dim {
                size: 2
              }
            }
          }
        }
      }
      attr {
        key: "use_locking"
        value {
          b: true
        }
      }
      attr {
        key: "validate_shape"
        value {
          b: true
        }
      }
    }
    node {
      name: "mel_bins"
      op: "Placeholder"
      attr {
        key: "_output_shapes"
        value {
          list {
            shape {
              dim {
                size: 124
              }
            }
          }
        }
      }
      attr {
        key: "dtype"
        value {
          type: DT_FLOAT
        }
      }
      attr {
        key: "shape"
        value {
          shape {
            dim {
              size: 124
            }
          }
        }
      }
    }
    node {
      name: "Reshape/shape"
      op: "Const"
      attr {
        key: "_output_shapes"
        value {
          list {
            shape {
              dim {
                size: 3
              }
            }
          }
        }
      }
      attr {
        key: "dtype"
        value {
          type: DT_INT32
        }
      }
      attr {
        key: "value"
        value {
          tensor {
            dtype: DT_INT32
            tensor_shape {
              dim {
                size: 3
              }
            }
            tensor_content: "\001\000\000\000|\000\000\000\001\000\000\000"
          }
        }
      }
    }
    node {
      name: "Reshape"
      op: "Reshape"
      input: "mel_bins"
      input: "Reshape/shape"
      attr {
        key: "T"
        value {
          type: DT_FLOAT
        }
      }
      attr {
        key: "Tshape"
        value {
          type: DT_INT32
        }
      }
      attr {
        key: "_output_shapes"
        value {
          list {
            shape {
              dim {
                size: 1
              }
              dim {
                size: 124
              }
              dim {
                size: 1
              }
            }
          }
        }
      }
    }
    node {
      name: "fifo_queue"
      op: "FIFOQueueV2"
      attr {
        key: "_output_shapes"
        value {
          list {
            shape {
            }
          }
        }
      }
      attr {
        key: "capacity"
        value {
          i: 1
        }
      }
      attr {
        key: "component_types"
        value {
          list {
            type: DT_FLOAT
          }
        }
      }
      attr {
        key: "container"
        value {
          s: ""
        }
      }
      attr {
        key: "shapes"
        value {
          list {
            shape {
              dim {
                size: 24
              }
              dim {
                size: 124
              }
              dim {
                size: 1
              }
            }
          }
        }
      }
      attr {
        key: "shared_name"
        value {
          s: ""
        }
      }
    }
    node {
      name: "zeros_2"
      op: "Const"
      attr {
        key: "_output_shapes"
        value {
          list {
            shape {
              dim {
                size: 24
              }
              dim {
                size: 124
              }
              dim {
                size: 1
              }
            }
          }
        }
      }
      attr {
        key: "dtype"
        value {
          type: DT_FLOAT
        }
      }
      attr {
        key: "value"
        value {
          tensor {
            dtype: DT_FLOAT
            tensor_shape {
              dim {
                size: 24
              }
              dim {
                size: 124
              }
              dim {
                size: 1
              }
            }
            float_val: 0.0
          }
        }
      }
    }
    node {
      name: "enqueue_start_inputs"
      op: "QueueEnqueueV2"
      input: "fifo_queue"
      input: "zeros_2"
      attr {
        key: "Tcomponents"
        value {
          list {
            type: DT_FLOAT
          }
        }
      }
      attr {
        key: "timeout_ms"
        value {
          i: -1
        }
      }
    }
    node {
      name: "fifo_queue_Dequeue"
      op: "QueueDequeueV2"
      input: "fifo_queue"
      attr {
        key: "_output_shapes"
        value {
          list {
            shape {
              dim {
                size: 24
              }
              dim {
                size: 124
              }
              dim {
                size: 1
              }
            }
          }
        }
      }
      attr {
        key: "component_types"
        value {
          list {
            type: DT_FLOAT
          }
        }
      }
      attr {
        key: "timeout_ms"
        value {
          i: -1
        }
      }
    }
    node {
      name: "concat/axis"
      op: "Const"
      attr {
        key: "_output_shapes"
        value {
          list {
            shape {
            }
          }
        }
      }
      attr {
        key: "dtype"
        value {
          type: DT_INT32
        }
      }
      attr {
        key: "value"
        value {
          tensor {
            dtype: DT_INT32
            tensor_shape {
            }
            int_val: 0
          }
        }
      }
    }
    node {
      name: "concat"
      op: "ConcatV2"
      input: "fifo_queue_Dequeue"
      input: "Reshape"
      input: "concat/axis"
      attr {
        key: "N"
        value {
          i: 2
        }
      }
      attr {
        key: "T"
        value {
          type: DT_FLOAT
        }
      }
      attr {
        key: "Tidx"
        value {
          type: DT_INT32
        }
      }
      attr {
        key: "_output_shapes"
        value {
          list {
            shape {
              dim {
                size: 25
              }
              dim {
                size: 124
              }
              dim {
                size: 1
              }
            }
          }
        }
      }
    }
    node {
      name: "strided_slice/stack"
      op: "Const"
      attr {
        key: "_output_shapes"
        value {
          list {
            shape {
              dim {
                size: 1
              }
            }
          }
        }
      }
      attr {
        key: "dtype"
        value {
          type: DT_INT32
        }
      }
      attr {
        key: "value"
        value {
          tensor {
            dtype: DT_INT32
            tensor_shape {
              dim {
                size: 1
              }
            }
            int_val: 1
          }
        }
      }
    }
    node {
      name: "strided_slice/stack_1"
      op: "Const"
      attr {
        key: "_output_shapes"
        value {
          list {
            shape {
              dim {
                size: 1
              }
            }
          }
        }
      }
      attr {
        key: "dtype"
        value {
          type: DT_INT32
        }
      }
      attr {
        key: "value"
        value {
          tensor {
            dtype: DT_INT32
            tensor_shape {
              dim {
                size: 1
              }
            }
            int_val: 25
          }
        }
      }
    }
    node {
      name: "strided_slice/stack_2"
      op: "Const"
      attr {
        key: "_output_shapes"
        value {
          list {
            shape {
              dim {
                size: 1
              }
            }
          }
        }
      }
      attr {
        key: "dtype"
        value {
          type: DT_INT32
        }
      }
      attr {
        key: "value"
        value {
          tensor {
            dtype: DT_INT32
            tensor_shape {
              dim {
                size: 1
              }
            }
            int_val: 1
          }
        }
      }
    }
    node {
      name: "strided_slice"
      op: "StridedSlice"
      input: "concat"
      input: "strided_slice/stack"
      input: "strided_slice/stack_1"
      input: "strided_slice/stack_2"
      attr {
        key: "Index"
        value {
          type: DT_INT32
        }
      }
      attr {
        key: "T"
        value {
          type: DT_FLOAT
        }
      }
      attr {
        key: "_output_shapes"
        value {
          list {
            shape {
              dim {
                size: 24
              }
              dim {
                size: 124
              }
              dim {
                size: 1
              }
            }
          }
        }
      }
      attr {
        key: "begin_mask"
        value {
          i: 0
        }
      }
      attr {
        key: "ellipsis_mask"
        value {
          i: 0
        }
      }
      attr {
        key: "end_mask"
        value {
          i: 0
        }
      }
      attr {
        key: "new_axis_mask"
        value {
          i: 0
        }
      }
      attr {
        key: "shrink_axis_mask"
        value {
          i: 0
        }
      }
    }
    node {
      name: "enqueue_new_inputs"
      op: "QueueEnqueueV2"
      input: "fifo_queue"
      input: "strided_slice"
      attr {
        key: "Tcomponents"
        value {
          list {
            type: DT_FLOAT
          }
        }
      }
      attr {
        key: "timeout_ms"
        value {
          i: -1
        }
      }
    }
    node {
      name: "outies/shape"
      op: "Const"
      attr {
        key: "_output_shapes"
        value {
          list {
            shape {
              dim {
                size: 4
              }
            }
          }
        }
      }
      attr {
        key: "dtype"
        value {
          type: DT_INT32
        }
      }
      attr {
        key: "value"
        value {
          tensor {
            dtype: DT_INT32
            tensor_shape {
              dim {
                size: 4
              }
            }
            tensor_content: "\001\000\000\000\031\000\000\000|\000\000\000\001\000\000\000"
          }
        }
      }
    }
    node {
      name: "outies"
      op: "Reshape"
      input: "concat"
      input: "outies/shape"
      attr {
        key: "T"
        value {
          type: DT_FLOAT
        }
      }
      attr {
        key: "Tshape"
        value {
          type: DT_INT32
        }
      }
      attr {
        key: "_output_shapes"
        value {
          list {
            shape {
              dim {
                size: 1
              }
              dim {
                size: 25
              }
              dim {
                size: 124
              }
              dim {
                size: 1
              }
            }
          }
        }
      }
    }
    node {
      name: "targets"
      op: "Identity"
      input: "Variable_1/read"
      attr {
        key: "T"
        value {
          type: DT_FLOAT
        }
      }
      attr {
        key: "_output_shapes"
        value {
          list {
            shape {
              dim {
                size: 1
              }
              dim {
                size: 1
              }
              dim {
                size: 56
              }
              dim {
                size: 2
              }
            }
          }
        }
      }
    }
    node {
      name: "sub/y"
      op: "Const"
      attr {
        key: "_output_shapes"
        value {
          list {
            shape {
            }
          }
        }
      }
      attr {
        key: "dtype"
        value {
          type: DT_FLOAT
        }
      }
      attr {
        key: "value"
        value {
          tensor {
            dtype: DT_FLOAT
            tensor_shape {
            }
            float_val: -4.0
          }
        }
      }
    }
    node {
      name: "sub"
      op: "Sub"
      input: "outies"
      input: "sub/y"
      attr {
        key: "T"
        value {
          type: DT_FLOAT
        }
      }
      attr {
        key: "_output_shapes"
        value {
          list {
            shape {
              dim {
                size: 1
              }
              dim {
                size: 25
              }
              dim {
                size: 124
              }
              dim {
                size: 1
              }
            }
          }
        }
      }
    }
    node {
      name: "truediv/y"
      op: "Const"
      attr {
        key: "_output_shapes"
        value {
          list {
            shape {
            }
          }
        }
      }
      attr {
        key: "dtype"
        value {
          type: DT_FLOAT
        }
      }
      attr {
        key: "value"
        value {
          tensor {
            dtype: DT_FLOAT
            tensor_shape {
            }
            float_val: 5.0
          }
        }
      }
    }
    node {
      name: "truediv"
      op: "RealDiv"
      input: "sub"
      input: "truediv/y"
      attr {
        key: "T"
        value {
          type: DT_FLOAT
        }
      }
      attr {
        key: "_output_shapes"
        value {
          list {
            shape {
              dim {
                size: 1
              }
              dim {
                size: 25
              }
              dim {
                size: 124
              }
              dim {
                size: 1
              }
            }
          }
        }
      }
    }
    node {
      name: "add/y"
      op: "Const"
      attr {
        key: "_output_shapes"
        value {
          list {
            shape {
            }
          }
        }
      }
      attr {
        key: "dtype"
        value {
          type: DT_FLOAT
        }
      }
      attr {
        key: "value"
        value {
          tensor {
            dtype: DT_FLOAT
            tensor_shape {
            }
            float_val: 1.0
          }
        }
      }
    }
    node {
      name: "add"
      op: "Add"
      input: "truediv"
      input: "add/y"
      attr {
        key: "T"
        value {
          type: DT_FLOAT
        }
      }
      attr {
        key: "_output_shapes"
        value {
          list {
            shape {
              dim {
                size: 1
              }
              dim {
                size: 25
              }
              dim {
                size: 124
              }
              dim {
                size: 1
              }
            }
          }
        }
      }
    }
    node {
      name: "truediv_1/y"
      op: "Const"
      attr {
        key: "_output_shapes"
        value {
          list {
            shape {
            }
          }
        }
      }
      attr {
        key: "dtype"
        value {
          type: DT_FLOAT
        }
      }
      attr {
        key: "value"
        value {
          tensor {
            dtype: DT_FLOAT
            tensor_shape {
            }
            float_val: 2.0
          }
        }
      }
    }
    node {
      name: "truediv_1"
      op: "RealDiv"
      input: "add"
      input: "truediv_1/y"
      attr {
        key: "T"
        value {
          type: DT_FLOAT
        }
      }
      attr {
        key: "_output_shapes"
        value {
          list {
            shape {
              dim {
                size: 1
              }
              dim {
                size: 25
              }
              dim {
                size: 124
              }
              dim {
                size: 1
              }
            }
          }
        }
      }
    }
    node {
      name: "conv2d/kernel/Initializer/random_uniform/shape"
      op: "Const"
      attr {
        key: "_class"
        value {
          list {
            s: "loc:@conv2d/kernel"
          }
        }
      }
      attr {
        key: "_output_shapes"
        value {
          list {
            shape {
              dim {
                size: 4
              }
            }
          }
        }
      }
      attr {
        key: "dtype"
        value {
          type: DT_INT32
        }
      }
      attr {
        key: "value"
        value {
          tensor {
            dtype: DT_INT32
            tensor_shape {
              dim {
                size: 4
              }
            }
            tensor_content: "\005\000\000\000\005\000\000\000\001\000\000\000 \000\000\000"
          }
        }
      }
    }
    node {
      name: "conv2d/kernel/Initializer/random_uniform/min"
      op: "Const"
      attr {
        key: "_class"
        value {
          list {
            s: "loc:@conv2d/kernel"
          }
        }
      }
      attr {
        key: "_output_shapes"
        value {
          list {
            shape {
            }
          }
        }
      }
      attr {
        key: "dtype"
        value {
          type: DT_FLOAT
        }
      }
      attr {
        key: "value"
        value {
          tensor {
            dtype: DT_FLOAT
            tensor_shape {
            }
            float_val: -0.08528028428554535
          }
        }
      }
    }
    node {
      name: "conv2d/kernel/Initializer/random_uniform/max"
      op: "Const"
      attr {
        key: "_class"
        value {
          list {
            s: "loc:@conv2d/kernel"
          }
        }
      }
      attr {
        key: "_output_shapes"
        value {
          list {
            shape {
            }
          }
        }
      }
      attr {
        key: "dtype"
        value {
          type: DT_FLOAT
        }
      }
      attr {
        key: "value"
        value {
          tensor {
            dtype: DT_FLOAT
            tensor_shape {
            }
            float_val: 0.08528028428554535
          }
        }
      }
    }
    node {
      name: "conv2d/kernel/Initializer/random_uniform/RandomUniform"
      op: "RandomUniform"
      input: "conv2d/kernel/Initializer/random_uniform/shape"
      attr {
        key: "T"
        value {
          type: DT_INT32
        }
      }
      attr {
        key: "_class"
        value {
          list {
            s: "loc:@conv2d/kernel"
          }
        }
      }
      attr {
        key: "_output_shapes"
        value {
          list {
            shape {
              dim {
                size: 5
              }
              dim {
                size: 5
              }
              dim {
                size: 1
              }
              dim {
                size: 32
              }
            }
          }
        }
      }
      attr {
        key: "dtype"
        value {
          type: DT_FLOAT
        }
      }
      attr {
        key: "seed"
        value {
          i: 0
        }
      }
      attr {
        key: "seed2"
        value {
          i: 0
        }
      }
    }
    node {
      name: "conv2d/kernel/Initializer/random_uniform/sub"
      op: "Sub"
      input: "conv2d/kernel/Initializer/random_uniform/max"
      input: "conv2d/kernel/Initializer/random_uniform/min"
      attr {
        key: "T"
        value {
          type: DT_FLOAT
        }
      }
      attr {
        key: "_class"
        value {
          list {
            s: "loc:@conv2d/kernel"
          }
        }
      }
      attr {
        key: "_output_shapes"
        value {
          list {
            shape {
            }
          }
        }
      }
    }
    node {
      name: "conv2d/kernel/Initializer/random_uniform/mul"
      op: "Mul"
      input: "conv2d/kernel/Initializer/random_uniform/RandomUniform"
      input: "conv2d/kernel/Initializer/random_uniform/sub"
      attr {
        key: "T"
        value {
          type: DT_FLOAT
        }
      }
      attr {
        key: "_class"
        value {
          list {
            s: "loc:@conv2d/kernel"
          }
        }
      }
      attr {
        key: "_output_shapes"
        value {
          list {
            shape {
              dim {
                size: 5
              }
              dim {
                size: 5
              }
              dim {
                size: 1
              }
              dim {
                size: 32
              }
            }
          }
        }
      }
    }
    node {
      name: "conv2d/kernel/Initializer/random_uniform"
      op: "Add"
      input: "conv2d/kernel/Initializer/random_uniform/mul"
      input: "conv2d/kernel/Initializer/random_uniform/min"
      attr {
        key: "T"
        value {
          type: DT_FLOAT
        }
      }
      attr {
        key: "_class"
        value {
          list {
            s: "loc:@conv2d/kernel"
          }
        }
      }
      attr {
        key: "_output_shapes"
        value {
          list {
            shape {
              dim {
                size: 5
              }
              dim {
                size: 5
              }
              dim {
                size: 1
              }
              dim {
                size: 32
              }
            }
          }
        }
      }
    }
    node {
      name: "conv2d/kernel"
      op: "VariableV2"
      attr {
        key: "_class"
        value {
          list {
            s: "loc:@conv2d/kernel"
          }
        }
      }
      attr {
        key: "_output_shapes"
        value {
          list {
            shape {
              dim {
                size: 5
              }
              dim {
                size: 5
              }
              dim {
                size: 1
              }
              dim {
                size: 32
              }
            }
          }
        }
      }
      attr {
        key: "container"
        value {
          s: ""
        }
      }
      attr {
        key: "dtype"
        value {
          type: DT_FLOAT
        }
      }
      attr {
        key: "shape"
        value {
          shape {
            dim {
              size: 5
            }
            dim {
              size: 5
            }
            dim {
              size: 1
            }
            dim {
              size: 32
            }
          }
        }
      }
      attr {
        key: "shared_name"
        value {
          s: ""
        }
      }
    }
    node {
      name: "conv2d/kernel/Assign"
      op: "Assign"
      input: "conv2d/kernel"
      input: "conv2d/kernel/Initializer/random_uniform"
      attr {
        key: "T"
        value {
          type: DT_FLOAT
        }
      }
      attr {
        key: "_class"
        value {
          list {
            s: "loc:@conv2d/kernel"
          }
        }
      }
      attr {
        key: "_output_shapes"
        value {
          list {
            shape {
              dim {
                size: 5
              }
              dim {
                size: 5
              }
              dim {
                size: 1
              }
              dim {
                size: 32
              }
            }
          }
        }
      }
      attr {
        key: "use_locking"
        value {
          b: true
        }
      }
      attr {
        key: "validate_shape"
        value {
          b: true
        }
      }
    }
    node {
      name: "conv2d/kernel/read"
      op: "Identity"
      input: "conv2d/kernel"
      attr {
        key: "T"
        value {
          type: DT_FLOAT
        }
      }
      attr {
        key: "_class"
        value {
          list {
            s: "loc:@conv2d/kernel"
          }
        }
      }
      attr {
        key: "_output_shapes"
        value {
          list {
            shape {
              dim {
                size: 5
              }
              dim {
                size: 5
              }
              dim {
                size: 1
              }
              dim {
                size: 32
              }
            }
          }
        }
      }
    }
    node {
      name: "conv2d/bias/Initializer/zeros"
      op: "Const"
      attr {
        key: "_class"
        value {
          list {
            s: "loc:@conv2d/bias"
          }
        }
      }
      attr {
        key: "_output_shapes"
        value {
          list {
            shape {
              dim {
                size: 32
              }
            }
          }
        }
      }
      attr {
        key: "dtype"
        value {
          type: DT_FLOAT
        }
      }
      attr {
        key: "value"
        value {
          tensor {
            dtype: DT_FLOAT
            tensor_shape {
              dim {
                size: 32
              }
            }
            float_val: 0.0
          }
        }
      }
    }
    node {
      name: "conv2d/bias"
      op: "VariableV2"
      attr {
        key: "_class"
        value {
          list {
            s: "loc:@conv2d/bias"
          }
        }
      }
      attr {
        key: "_output_shapes"
        value {
          list {
            shape {
              dim {
                size: 32
              }
            }
          }
        }
      }
      attr {
        key: "container"
        value {
          s: ""
        }
      }
      attr {
        key: "dtype"
        value {
          type: DT_FLOAT
        }
      }
      attr {
        key: "shape"
        value {
          shape {
            dim {
              size: 32
            }
          }
        }
      }
      attr {
        key: "shared_name"
        value {
          s: ""
        }
      }
    }
    node {
      name: "conv2d/bias/Assign"
      op: "Assign"
      input: "conv2d/bias"
      input: "conv2d/bias/Initializer/zeros"
      attr {
        key: "T"
        value {
          type: DT_FLOAT
        }
      }
      attr {
        key: "_class"
        value {
          list {
            s: "loc:@conv2d/bias"
          }
        }
      }
      attr {
        key: "_output_shapes"
        value {
          list {
            shape {
              dim {
                size: 32
              }
            }
          }
        }
      }
      attr {
        key: "use_locking"
        value {
          b: true
        }
      }
      attr {
        key: "validate_shape"
        value {
          b: true
        }
      }
    }
    node {
      name: "conv2d/bias/read"
      op: "Identity"
      input: "conv2d/bias"
      attr {
        key: "T"
        value {
          type: DT_FLOAT
        }
      }
      attr {
        key: "_class"
        value {
          list {
            s: "loc:@conv2d/bias"
          }
        }
      }
      attr {
        key: "_output_shapes"
        value {
          list {
            shape {
              dim {
                size: 32
              }
            }
          }
        }
      }
    }
    node {
      name: "conv2d/convolution/Shape"
      op: "Const"
      attr {
        key: "_output_shapes"
        value {
          list {
            shape {
              dim {
                size: 4
              }
            }
          }
        }
      }
      attr {
        key: "dtype"
        value {
          type: DT_INT32
        }
      }
      attr {
        key: "value"
        value {
          tensor {
            dtype: DT_INT32
            tensor_shape {
              dim {
                size: 4
              }
            }
            tensor_content: "\005\000\000\000\005\000\000\000\001\000\000\000 \000\000\000"
          }
        }
      }
    }
    node {
      name: "conv2d/convolution/dilation_rate"
      op: "Const"
      attr {
        key: "_output_shapes"
        value {
          list {
            shape {
              dim {
                size: 2
              }
            }
          }
        }
      }
      attr {
        key: "dtype"
        value {
          type: DT_INT32
        }
      }
      attr {
        key: "value"
        value {
          tensor {
            dtype: DT_INT32
            tensor_shape {
              dim {
                size: 2
              }
            }
            tensor_content: "\001\000\000\000\001\000\000\000"
          }
        }
      }
    }
    node {
      name: "conv2d/convolution"
      op: "Conv2D"
      input: "truediv_1"
      input: "conv2d/kernel/read"
      attr {
        key: "T"
        value {
          type: DT_FLOAT
        }
      }
      attr {
        key: "_output_shapes"
        value {
          list {
            shape {
              dim {
                size: 1
              }
              dim {
                size: 25
              }
              dim {
                size: 124
              }
              dim {
                size: 32
              }
            }
          }
        }
      }
      attr {
        key: "data_format"
        value {
          s: "NHWC"
        }
      }
      attr {
        key: "padding"
        value {
          s: "SAME"
        }
      }
      attr {
        key: "strides"
        value {
          list {
            i: 1
            i: 1
            i: 1
            i: 1
          }
        }
      }
      attr {
        key: "use_cudnn_on_gpu"
        value {
          b: true
        }
      }
    }
    node {
      name: "conv2d/BiasAdd"
      op: "BiasAdd"
      input: "conv2d/convolution"
      input: "conv2d/bias/read"
      attr {
        key: "T"
        value {
          type: DT_FLOAT
        }
      }
      attr {
        key: "_output_shapes"
        value {
          list {
            shape {
              dim {
                size: 1
              }
              dim {
                size: 25
              }
              dim {
                size: 124
              }
              dim {
                size: 32
              }
            }
          }
        }
      }
      attr {
        key: "data_format"
        value {
          s: "NHWC"
        }
      }
    }
    node {
      name: "conv2d/Relu"
      op: "Relu"
      input: "conv2d/BiasAdd"
      attr {
        key: "T"
        value {
          type: DT_FLOAT
        }
      }
      attr {
        key: "_output_shapes"
        value {
          list {
            shape {
              dim {
                size: 1
              }
              dim {
                size: 25
              }
              dim {
                size: 124
              }
              dim {
                size: 32
              }
            }
          }
        }
      }
    }
    node {
      name: "max_pooling2d/MaxPool"
      op: "MaxPool"
      input: "conv2d/Relu"
      attr {
        key: "T"
        value {
          type: DT_FLOAT
        }
      }
      attr {
        key: "_output_shapes"
        value {
          list {
            shape {
              dim {
                size: 1
              }
              dim {
                size: 25
              }
              dim {
                size: 62
              }
              dim {
                size: 32
              }
            }
          }
        }
      }
      attr {
        key: "data_format"
        value {
          s: "NHWC"
        }
      }
      attr {
        key: "ksize"
        value {
          list {
            i: 1
            i: 1
            i: 2
            i: 1
          }
        }
      }
      attr {
        key: "padding"
        value {
          s: "VALID"
        }
      }
      attr {
        key: "strides"
        value {
          list {
            i: 1
            i: 1
            i: 2
            i: 1
          }
        }
      }
    }
    node {
      name: "conv2d_1/kernel/Initializer/random_uniform/shape"
      op: "Const"
      attr {
        key: "_class"
        value {
          list {
            s: "loc:@conv2d_1/kernel"
          }
        }
      }
      attr {
        key: "_output_shapes"
        value {
          list {
            shape {
              dim {
                size: 4
              }
            }
          }
        }
      }
      attr {
        key: "dtype"
        value {
          type: DT_INT32
        }
      }
      attr {
        key: "value"
        value {
          tensor {
            dtype: DT_INT32
            tensor_shape {
              dim {
                size: 4
              }
            }
            tensor_content: "\005\000\000\000\n\000\000\000 \000\000\000 \000\000\000"
          }
        }
      }
    }
    node {
      name: "conv2d_1/kernel/Initializer/random_uniform/min"
      op: "Const"
      attr {
        key: "_class"
        value {
          list {
            s: "loc:@conv2d_1/kernel"
          }
        }
      }
      attr {
        key: "_output_shapes"
        value {
          list {
            shape {
            }
          }
        }
      }
      attr {
        key: "dtype"
        value {
          type: DT_FLOAT
        }
      }
      attr {
        key: "value"
        value {
          tensor {
            dtype: DT_FLOAT
            tensor_shape {
            }
            float_val: -0.04330126941204071
          }
        }
      }
    }
    node {
      name: "conv2d_1/kernel/Initializer/random_uniform/max"
      op: "Const"
      attr {
        key: "_class"
        value {
          list {
            s: "loc:@conv2d_1/kernel"
          }
        }
      }
      attr {
        key: "_output_shapes"
        value {
          list {
            shape {
            }
          }
        }
      }
      attr {
        key: "dtype"
        value {
          type: DT_FLOAT
        }
      }
      attr {
        key: "value"
        value {
          tensor {
            dtype: DT_FLOAT
            tensor_shape {
            }
            float_val: 0.04330126941204071
          }
        }
      }
    }
    node {
      name: "conv2d_1/kernel/Initializer/random_uniform/RandomUniform"
      op: "RandomUniform"
      input: "conv2d_1/kernel/Initializer/random_uniform/shape"
      attr {
        key: "T"
        value {
          type: DT_INT32
        }
      }
      attr {
        key: "_class"
        value {
          list {
            s: "loc:@conv2d_1/kernel"
          }
        }
      }
      attr {
        key: "_output_shapes"
        value {
          list {
            shape {
              dim {
                size: 5
              }
              dim {
                size: 10
              }
              dim {
                size: 32
              }
              dim {
                size: 32
              }
            }
          }
        }
      }
      attr {
        key: "dtype"
        value {
          type: DT_FLOAT
        }
      }
      attr {
        key: "seed"
        value {
          i: 0
        }
      }
      attr {
        key: "seed2"
        value {
          i: 0
        }
      }
    }
    node {
      name: "conv2d_1/kernel/Initializer/random_uniform/sub"
      op: "Sub"
      input: "conv2d_1/kernel/Initializer/random_uniform/max"
      input: "conv2d_1/kernel/Initializer/random_uniform/min"
      attr {
        key: "T"
        value {
          type: DT_FLOAT
        }
      }
      attr {
        key: "_class"
        value {
          list {
            s: "loc:@conv2d_1/kernel"
          }
        }
      }
      attr {
        key: "_output_shapes"
        value {
          list {
            shape {
            }
          }
        }
      }
    }
    node {
      name: "conv2d_1/kernel/Initializer/random_uniform/mul"
      op: "Mul"
      input: "conv2d_1/kernel/Initializer/random_uniform/RandomUniform"
      input: "conv2d_1/kernel/Initializer/random_uniform/sub"
      attr {
        key: "T"
        value {
          type: DT_FLOAT
        }
      }
      attr {
        key: "_class"
        value {
          list {
            s: "loc:@conv2d_1/kernel"
          }
        }
      }
      attr {
        key: "_output_shapes"
        value {
          list {
            shape {
              dim {
                size: 5
              }
              dim {
                size: 10
              }
              dim {
                size: 32
              }
              dim {
                size: 32
              }
            }
          }
        }
      }
    }
    node {
      name: "conv2d_1/kernel/Initializer/random_uniform"
      op: "Add"
      input: "conv2d_1/kernel/Initializer/random_uniform/mul"
      input: "conv2d_1/kernel/Initializer/random_uniform/min"
      attr {
        key: "T"
        value {
          type: DT_FLOAT
        }
      }
      attr {
        key: "_class"
        value {
          list {
            s: "loc:@conv2d_1/kernel"
          }
        }
      }
      attr {
        key: "_output_shapes"
        value {
          list {
            shape {
              dim {
                size: 5
              }
              dim {
                size: 10
              }
              dim {
                size: 32
              }
              dim {
                size: 32
              }
            }
          }
        }
      }
    }
    node {
      name: "conv2d_1/kernel"
      op: "VariableV2"
      attr {
        key: "_class"
        value {
          list {
            s: "loc:@conv2d_1/kernel"
          }
        }
      }
      attr {
        key: "_output_shapes"
        value {
          list {
            shape {
              dim {
                size: 5
              }
              dim {
                size: 10
              }
              dim {
                size: 32
              }
              dim {
                size: 32
              }
            }
          }
        }
      }
      attr {
        key: "container"
        value {
          s: ""
        }
      }
      attr {
        key: "dtype"
        value {
          type: DT_FLOAT
        }
      }
      attr {
        key: "shape"
        value {
          shape {
            dim {
              size: 5
            }
            dim {
              size: 10
            }
            dim {
              size: 32
            }
            dim {
              size: 32
            }
          }
        }
      }
      attr {
        key: "shared_name"
        value {
          s: ""
        }
      }
    }
    node {
      name: "conv2d_1/kernel/Assign"
      op: "Assign"
      input: "conv2d_1/kernel"
      input: "conv2d_1/kernel/Initializer/random_uniform"
      attr {
        key: "T"
        value {
          type: DT_FLOAT
        }
      }
      attr {
        key: "_class"
        value {
          list {
            s: "loc:@conv2d_1/kernel"
          }
        }
      }
      attr {
        key: "_output_shapes"
        value {
          list {
            shape {
              dim {
                size: 5
              }
              dim {
                size: 10
              }
              dim {
                size: 32
              }
              dim {
                size: 32
              }
            }
          }
        }
      }
      attr {
        key: "use_locking"
        value {
          b: true
        }
      }
      attr {
        key: "validate_shape"
        value {
          b: true
        }
      }
    }
    node {
      name: "conv2d_1/kernel/read"
      op: "Identity"
      input: "conv2d_1/kernel"
      attr {
        key: "T"
        value {
          type: DT_FLOAT
        }
      }
      attr {
        key: "_class"
        value {
          list {
            s: "loc:@conv2d_1/kernel"
          }
        }
      }
      attr {
        key: "_output_shapes"
        value {
          list {
            shape {
              dim {
                size: 5
              }
              dim {
                size: 10
              }
              dim {
                size: 32
              }
              dim {
                size: 32
              }
            }
          }
        }
      }
    }
    node {
      name: "conv2d_1/bias/Initializer/zeros"
      op: "Const"
      attr {
        key: "_class"
        value {
          list {
            s: "loc:@conv2d_1/bias"
          }
        }
      }
      attr {
        key: "_output_shapes"
        value {
          list {
            shape {
              dim {
                size: 32
              }
            }
          }
        }
      }
      attr {
        key: "dtype"
        value {
          type: DT_FLOAT
        }
      }
      attr {
        key: "value"
        value {
          tensor {
            dtype: DT_FLOAT
            tensor_shape {
              dim {
                size: 32
              }
            }
            float_val: 0.0
          }
        }
      }
    }
    node {
      name: "conv2d_1/bias"
      op: "VariableV2"
      attr {
        key: "_class"
        value {
          list {
            s: "loc:@conv2d_1/bias"
          }
        }
      }
      attr {
        key: "_output_shapes"
        value {
          list {
            shape {
              dim {
                size: 32
              }
            }
          }
        }
      }
      attr {
        key: "container"
        value {
          s: ""
        }
      }
      attr {
        key: "dtype"
        value {
          type: DT_FLOAT
        }
      }
      attr {
        key: "shape"
        value {
          shape {
            dim {
              size: 32
            }
          }
        }
      }
      attr {
        key: "shared_name"
        value {
          s: ""
        }
      }
    }
    node {
      name: "conv2d_1/bias/Assign"
      op: "Assign"
      input: "conv2d_1/bias"
      input: "conv2d_1/bias/Initializer/zeros"
      attr {
        key: "T"
        value {
          type: DT_FLOAT
        }
      }
      attr {
        key: "_class"
        value {
          list {
            s: "loc:@conv2d_1/bias"
          }
        }
      }
      attr {
        key: "_output_shapes"
        value {
          list {
            shape {
              dim {
                size: 32
              }
            }
          }
        }
      }
      attr {
        key: "use_locking"
        value {
          b: true
        }
      }
      attr {
        key: "validate_shape"
        value {
          b: true
        }
      }
    }
    node {
      name: "conv2d_1/bias/read"
      op: "Identity"
      input: "conv2d_1/bias"
      attr {
        key: "T"
        value {
          type: DT_FLOAT
        }
      }
      attr {
        key: "_class"
        value {
          list {
            s: "loc:@conv2d_1/bias"
          }
        }
      }
      attr {
        key: "_output_shapes"
        value {
          list {
            shape {
              dim {
                size: 32
              }
            }
          }
        }
      }
    }
    node {
      name: "conv2d_2/convolution/Shape"
      op: "Const"
      attr {
        key: "_output_shapes"
        value {
          list {
            shape {
              dim {
                size: 4
              }
            }
          }
        }
      }
      attr {
        key: "dtype"
        value {
          type: DT_INT32
        }
      }
      attr {
        key: "value"
        value {
          tensor {
            dtype: DT_INT32
            tensor_shape {
              dim {
                size: 4
              }
            }
            tensor_content: "\005\000\000\000\n\000\000\000 \000\000\000 \000\000\000"
          }
        }
      }
    }
    node {
      name: "conv2d_2/convolution/dilation_rate"
      op: "Const"
      attr {
        key: "_output_shapes"
        value {
          list {
            shape {
              dim {
                size: 2
              }
            }
          }
        }
      }
      attr {
        key: "dtype"
        value {
          type: DT_INT32
        }
      }
      attr {
        key: "value"
        value {
          tensor {
            dtype: DT_INT32
            tensor_shape {
              dim {
                size: 2
              }
            }
            tensor_content: "\001\000\000\000\001\000\000\000"
          }
        }
      }
    }
    node {
      name: "conv2d_2/convolution"
      op: "Conv2D"
      input: "max_pooling2d/MaxPool"
      input: "conv2d_1/kernel/read"
      attr {
        key: "T"
        value {
          type: DT_FLOAT
        }
      }
      attr {
        key: "_output_shapes"
        value {
          list {
            shape {
              dim {
                size: 1
              }
              dim {
                size: 25
              }
              dim {
                size: 62
              }
              dim {
                size: 32
              }
            }
          }
        }
      }
      attr {
        key: "data_format"
        value {
          s: "NHWC"
        }
      }
      attr {
        key: "padding"
        value {
          s: "SAME"
        }
      }
      attr {
        key: "strides"
        value {
          list {
            i: 1
            i: 1
            i: 1
            i: 1
          }
        }
      }
      attr {
        key: "use_cudnn_on_gpu"
        value {
          b: true
        }
      }
    }
    node {
      name: "conv2d_2/BiasAdd"
      op: "BiasAdd"
      input: "conv2d_2/convolution"
      input: "conv2d_1/bias/read"
      attr {
        key: "T"
        value {
          type: DT_FLOAT
        }
      }
      attr {
        key: "_output_shapes"
        value {
          list {
            shape {
              dim {
                size: 1
              }
              dim {
                size: 25
              }
              dim {
                size: 62
              }
              dim {
                size: 32
              }
            }
          }
        }
      }
      attr {
        key: "data_format"
        value {
          s: "NHWC"
        }
      }
    }
    node {
      name: "conv2d_2/Relu"
      op: "Relu"
      input: "conv2d_2/BiasAdd"
      attr {
        key: "T"
        value {
          type: DT_FLOAT
        }
      }
      attr {
        key: "_output_shapes"
        value {
          list {
            shape {
              dim {
                size: 1
              }
              dim {
                size: 25
              }
              dim {
                size: 62
              }
              dim {
                size: 32
              }
            }
          }
        }
      }
    }
    node {
      name: "max_pooling2d_2/MaxPool"
      op: "MaxPool"
      input: "conv2d_2/Relu"
      attr {
        key: "T"
        value {
          type: DT_FLOAT
        }
      }
      attr {
        key: "_output_shapes"
        value {
          list {
            shape {
              dim {
                size: 1
              }
              dim {
                size: 25
              }
              dim {
                size: 31
              }
              dim {
                size: 32
              }
            }
          }
        }
      }
      attr {
        key: "data_format"
        value {
          s: "NHWC"
        }
      }
      attr {
        key: "ksize"
        value {
          list {
            i: 1
            i: 1
            i: 2
            i: 1
          }
        }
      }
      attr {
        key: "padding"
        value {
          s: "VALID"
        }
      }
      attr {
        key: "strides"
        value {
          list {
            i: 1
            i: 1
            i: 2
            i: 1
          }
        }
      }
    }
    node {
      name: "conv2d_2/kernel/Initializer/random_uniform/shape"
      op: "Const"
      attr {
        key: "_class"
        value {
          list {
            s: "loc:@conv2d_2/kernel"
          }
        }
      }
      attr {
        key: "_output_shapes"
        value {
          list {
            shape {
              dim {
                size: 4
              }
            }
          }
        }
      }
      attr {
        key: "dtype"
        value {
          type: DT_INT32
        }
      }
      attr {
        key: "value"
        value {
          tensor {
            dtype: DT_INT32
            tensor_shape {
              dim {
                size: 4
              }
            }
            tensor_content: "\001\000\000\000\005\000\000\000 \000\000\000 \000\000\000"
          }
        }
      }
    }
    node {
      name: "conv2d_2/kernel/Initializer/random_uniform/min"
      op: "Const"
      attr {
        key: "_class"
        value {
          list {
            s: "loc:@conv2d_2/kernel"
          }
        }
      }
      attr {
        key: "_output_shapes"
        value {
          list {
            shape {
            }
          }
        }
      }
      attr {
        key: "dtype"
        value {
          type: DT_FLOAT
        }
      }
      attr {
        key: "value"
        value {
          tensor {
            dtype: DT_FLOAT
            tensor_shape {
            }
            float_val: -0.1369306445121765
          }
        }
      }
    }
    node {
      name: "conv2d_2/kernel/Initializer/random_uniform/max"
      op: "Const"
      attr {
        key: "_class"
        value {
          list {
            s: "loc:@conv2d_2/kernel"
          }
        }
      }
      attr {
        key: "_output_shapes"
        value {
          list {
            shape {
            }
          }
        }
      }
      attr {
        key: "dtype"
        value {
          type: DT_FLOAT
        }
      }
      attr {
        key: "value"
        value {
          tensor {
            dtype: DT_FLOAT
            tensor_shape {
            }
            float_val: 0.1369306445121765
          }
        }
      }
    }
    node {
      name: "conv2d_2/kernel/Initializer/random_uniform/RandomUniform"
      op: "RandomUniform"
      input: "conv2d_2/kernel/Initializer/random_uniform/shape"
      attr {
        key: "T"
        value {
          type: DT_INT32
        }
      }
      attr {
        key: "_class"
        value {
          list {
            s: "loc:@conv2d_2/kernel"
          }
        }
      }
      attr {
        key: "_output_shapes"
        value {
          list {
            shape {
              dim {
                size: 1
              }
              dim {
                size: 5
              }
              dim {
                size: 32
              }
              dim {
                size: 32
              }
            }
          }
        }
      }
      attr {
        key: "dtype"
        value {
          type: DT_FLOAT
        }
      }
      attr {
        key: "seed"
        value {
          i: 0
        }
      }
      attr {
        key: "seed2"
        value {
          i: 0
        }
      }
    }
    node {
      name: "conv2d_2/kernel/Initializer/random_uniform/sub"
      op: "Sub"
      input: "conv2d_2/kernel/Initializer/random_uniform/max"
      input: "conv2d_2/kernel/Initializer/random_uniform/min"
      attr {
        key: "T"
        value {
          type: DT_FLOAT
        }
      }
      attr {
        key: "_class"
        value {
          list {
            s: "loc:@conv2d_2/kernel"
          }
        }
      }
      attr {
        key: "_output_shapes"
        value {
          list {
            shape {
            }
          }
        }
      }
    }
    node {
      name: "conv2d_2/kernel/Initializer/random_uniform/mul"
      op: "Mul"
      input: "conv2d_2/kernel/Initializer/random_uniform/RandomUniform"
      input: "conv2d_2/kernel/Initializer/random_uniform/sub"
      attr {
        key: "T"
        value {
          type: DT_FLOAT
        }
      }
      attr {
        key: "_class"
        value {
          list {
            s: "loc:@conv2d_2/kernel"
          }
        }
      }
      attr {
        key: "_output_shapes"
        value {
          list {
            shape {
              dim {
                size: 1
              }
              dim {
                size: 5
              }
              dim {
                size: 32
              }
              dim {
                size: 32
              }
            }
          }
        }
      }
    }
    node {
      name: "conv2d_2/kernel/Initializer/random_uniform"
      op: "Add"
      input: "conv2d_2/kernel/Initializer/random_uniform/mul"
      input: "conv2d_2/kernel/Initializer/random_uniform/min"
      attr {
        key: "T"
        value {
          type: DT_FLOAT
        }
      }
      attr {
        key: "_class"
        value {
          list {
            s: "loc:@conv2d_2/kernel"
          }
        }
      }
      attr {
        key: "_output_shapes"
        value {
          list {
            shape {
              dim {
                size: 1
              }
              dim {
                size: 5
              }
              dim {
                size: 32
              }
              dim {
                size: 32
              }
            }
          }
        }
      }
    }
    node {
      name: "conv2d_2/kernel"
      op: "VariableV2"
      attr {
        key: "_class"
        value {
          list {
            s: "loc:@conv2d_2/kernel"
          }
        }
      }
      attr {
        key: "_output_shapes"
        value {
          list {
            shape {
              dim {
                size: 1
              }
              dim {
                size: 5
              }
              dim {
                size: 32
              }
              dim {
                size: 32
              }
            }
          }
        }
      }
      attr {
        key: "container"
        value {
          s: ""
        }
      }
      attr {
        key: "dtype"
        value {
          type: DT_FLOAT
        }
      }
      attr {
        key: "shape"
        value {
          shape {
            dim {
              size: 1
            }
            dim {
              size: 5
            }
            dim {
              size: 32
            }
            dim {
              size: 32
            }
          }
        }
      }
      attr {
        key: "shared_name"
        value {
          s: ""
        }
      }
    }
    node {
      name: "conv2d_2/kernel/Assign"
      op: "Assign"
      input: "conv2d_2/kernel"
      input: "conv2d_2/kernel/Initializer/random_uniform"
      attr {
        key: "T"
        value {
          type: DT_FLOAT
        }
      }
      attr {
        key: "_class"
        value {
          list {
            s: "loc:@conv2d_2/kernel"
          }
        }
      }
      attr {
        key: "_output_shapes"
        value {
          list {
            shape {
              dim {
                size: 1
              }
              dim {
                size: 5
              }
              dim {
                size: 32
              }
              dim {
                size: 32
              }
            }
          }
        }
      }
      attr {
        key: "use_locking"
        value {
          b: true
        }
      }
      attr {
        key: "validate_shape"
        value {
          b: true
        }
      }
    }
    node {
      name: "conv2d_2/kernel/read"
      op: "Identity"
      input: "conv2d_2/kernel"
      attr {
        key: "T"
        value {
          type: DT_FLOAT
        }
      }
      attr {
        key: "_class"
        value {
          list {
            s: "loc:@conv2d_2/kernel"
          }
        }
      }
      attr {
        key: "_output_shapes"
        value {
          list {
            shape {
              dim {
                size: 1
              }
              dim {
                size: 5
              }
              dim {
                size: 32
              }
              dim {
                size: 32
              }
            }
          }
        }
      }
    }
    node {
      name: "conv2d_2/bias/Initializer/zeros"
      op: "Const"
      attr {
        key: "_class"
        value {
          list {
            s: "loc:@conv2d_2/bias"
          }
        }
      }
      attr {
        key: "_output_shapes"
        value {
          list {
            shape {
              dim {
                size: 32
              }
            }
          }
        }
      }
      attr {
        key: "dtype"
        value {
          type: DT_FLOAT
        }
      }
      attr {
        key: "value"
        value {
          tensor {
            dtype: DT_FLOAT
            tensor_shape {
              dim {
                size: 32
              }
            }
            float_val: 0.0
          }
        }
      }
    }
    node {
      name: "conv2d_2/bias"
      op: "VariableV2"
      attr {
        key: "_class"
        value {
          list {
            s: "loc:@conv2d_2/bias"
          }
        }
      }
      attr {
        key: "_output_shapes"
        value {
          list {
            shape {
              dim {
                size: 32
              }
            }
          }
        }
      }
      attr {
        key: "container"
        value {
          s: ""
        }
      }
      attr {
        key: "dtype"
        value {
          type: DT_FLOAT
        }
      }
      attr {
        key: "shape"
        value {
          shape {
            dim {
              size: 32
            }
          }
        }
      }
      attr {
        key: "shared_name"
        value {
          s: ""
        }
      }
    }
    node {
      name: "conv2d_2/bias/Assign"
      op: "Assign"
      input: "conv2d_2/bias"
      input: "conv2d_2/bias/Initializer/zeros"
      attr {
        key: "T"
        value {
          type: DT_FLOAT
        }
      }
      attr {
        key: "_class"
        value {
          list {
            s: "loc:@conv2d_2/bias"
          }
        }
      }
      attr {
        key: "_output_shapes"
        value {
          list {
            shape {
              dim {
                size: 32
              }
            }
          }
        }
      }
      attr {
        key: "use_locking"
        value {
          b: true
        }
      }
      attr {
        key: "validate_shape"
        value {
          b: true
        }
      }
    }
    node {
      name: "conv2d_2/bias/read"
      op: "Identity"
      input: "conv2d_2/bias"
      attr {
        key: "T"
        value {
          type: DT_FLOAT
        }
      }
      attr {
        key: "_class"
        value {
          list {
            s: "loc:@conv2d_2/bias"
          }
        }
      }
      attr {
        key: "_output_shapes"
        value {
          list {
            shape {
              dim {
                size: 32
              }
            }
          }
        }
      }
    }
    node {
      name: "conv2d_3/convolution/Shape"
      op: "Const"
      attr {
        key: "_output_shapes"
        value {
          list {
            shape {
              dim {
                size: 4
              }
            }
          }
        }
      }
      attr {
        key: "dtype"
        value {
          type: DT_INT32
        }
      }
      attr {
        key: "value"
        value {
          tensor {
            dtype: DT_INT32
            tensor_shape {
              dim {
                size: 4
              }
            }
            tensor_content: "\001\000\000\000\005\000\000\000 \000\000\000 \000\000\000"
          }
        }
      }
    }
    node {
      name: "conv2d_3/convolution/dilation_rate"
      op: "Const"
      attr {
        key: "_output_shapes"
        value {
          list {
            shape {
              dim {
                size: 2
              }
            }
          }
        }
      }
      attr {
        key: "dtype"
        value {
          type: DT_INT32
        }
      }
      attr {
        key: "value"
        value {
          tensor {
            dtype: DT_INT32
            tensor_shape {
              dim {
                size: 2
              }
            }
            tensor_content: "\001\000\000\000\001\000\000\000"
          }
        }
      }
    }
    node {
      name: "conv2d_3/convolution"
      op: "Conv2D"
      input: "max_pooling2d_2/MaxPool"
      input: "conv2d_2/kernel/read"
      attr {
        key: "T"
        value {
          type: DT_FLOAT
        }
      }
      attr {
        key: "_output_shapes"
        value {
          list {
            shape {
              dim {
                size: 1
              }
              dim {
                size: 25
              }
              dim {
                size: 31
              }
              dim {
                size: 32
              }
            }
          }
        }
      }
      attr {
        key: "data_format"
        value {
          s: "NHWC"
        }
      }
      attr {
        key: "padding"
        value {
          s: "SAME"
        }
      }
      attr {
        key: "strides"
        value {
          list {
            i: 1
            i: 1
            i: 1
            i: 1
          }
        }
      }
      attr {
        key: "use_cudnn_on_gpu"
        value {
          b: true
        }
      }
    }
    node {
      name: "conv2d_3/BiasAdd"
      op: "BiasAdd"
      input: "conv2d_3/convolution"
      input: "conv2d_2/bias/read"
      attr {
        key: "T"
        value {
          type: DT_FLOAT
        }
      }
      attr {
        key: "_output_shapes"
        value {
          list {
            shape {
              dim {
                size: 1
              }
              dim {
                size: 25
              }
              dim {
                size: 31
              }
              dim {
                size: 32
              }
            }
          }
        }
      }
      attr {
        key: "data_format"
        value {
          s: "NHWC"
        }
      }
    }
    node {
      name: "conv2d_3/Relu"
      op: "Relu"
      input: "conv2d_3/BiasAdd"
      attr {
        key: "T"
        value {
          type: DT_FLOAT
        }
      }
      attr {
        key: "_output_shapes"
        value {
          list {
            shape {
              dim {
                size: 1
              }
              dim {
                size: 25
              }
              dim {
                size: 31
              }
              dim {
                size: 32
              }
            }
          }
        }
      }
    }
    node {
      name: "max_pooling2d_3/MaxPool"
      op: "MaxPool"
      input: "conv2d_3/Relu"
      attr {
        key: "T"
        value {
          type: DT_FLOAT
        }
      }
      attr {
        key: "_output_shapes"
        value {
          list {
            shape {
              dim {
                size: 1
              }
              dim {
                size: 25
              }
              dim {
                size: 30
              }
              dim {
                size: 32
              }
            }
          }
        }
      }
      attr {
        key: "data_format"
        value {
          s: "NHWC"
        }
      }
      attr {
        key: "ksize"
        value {
          list {
            i: 1
            i: 1
            i: 2
            i: 1
          }
        }
      }
      attr {
        key: "padding"
        value {
          s: "VALID"
        }
      }
      attr {
        key: "strides"
        value {
          list {
            i: 1
            i: 1
            i: 1
            i: 1
          }
        }
      }
    }
    node {
      name: "strided_slice_1/stack"
      op: "Const"
      attr {
        key: "_output_shapes"
        value {
          list {
            shape {
              dim {
                size: 3
              }
            }
          }
        }
      }
      attr {
        key: "dtype"
        value {
          type: DT_INT32
        }
      }
      attr {
        key: "value"
        value {
          tensor {
            dtype: DT_INT32
            tensor_shape {
              dim {
                size: 3
              }
            }
            tensor_content: "\000\000\000\000\r\000\000\000\000\000\000\000"
          }
        }
      }
    }
    node {
      name: "strided_slice_1/stack_1"
      op: "Const"
      attr {
        key: "_output_shapes"
        value {
          list {
            shape {
              dim {
                size: 3
              }
            }
          }
        }
      }
      attr {
        key: "dtype"
        value {
          type: DT_INT32
        }
      }
      attr {
        key: "value"
        value {
          tensor {
            dtype: DT_INT32
            tensor_shape {
              dim {
                size: 3
              }
            }
            tensor_content: "\000\000\000\000\016\000\000\000\000\000\000\000"
          }
        }
      }
    }
    node {
      name: "strided_slice_1/stack_2"
      op: "Const"
      attr {
        key: "_output_shapes"
        value {
          list {
            shape {
              dim {
                size: 3
              }
            }
          }
        }
      }
      attr {
        key: "dtype"
        value {
          type: DT_INT32
        }
      }
      attr {
        key: "value"
        value {
          tensor {
            dtype: DT_INT32
            tensor_shape {
              dim {
                size: 3
              }
            }
            tensor_content: "\001\000\000\000\001\000\000\000\001\000\000\000"
          }
        }
      }
    }
    node {
      name: "strided_slice_1"
      op: "StridedSlice"
      input: "max_pooling2d_3/MaxPool"
      input: "strided_slice_1/stack"
      input: "strided_slice_1/stack_1"
      input: "strided_slice_1/stack_2"
      attr {
        key: "Index"
        value {
          type: DT_INT32
        }
      }
      attr {
        key: "T"
        value {
          type: DT_FLOAT
        }
      }
      attr {
        key: "_output_shapes"
        value {
          list {
            shape {
              dim {
                size: 1
              }
              dim {
                size: 30
              }
              dim {
                size: 32
              }
            }
          }
        }
      }
      attr {
        key: "begin_mask"
        value {
          i: 5
        }
      }
      attr {
        key: "ellipsis_mask"
        value {
          i: 0
        }
      }
      attr {
        key: "end_mask"
        value {
          i: 5
        }
      }
      attr {
        key: "new_axis_mask"
        value {
          i: 0
        }
      }
      attr {
        key: "shrink_axis_mask"
        value {
          i: 2
        }
      }
    }
    node {
      name: "Reshape_1/shape"
      op: "Const"
      attr {
        key: "_output_shapes"
        value {
          list {
            shape {
              dim {
                size: 3
              }
            }
          }
        }
      }
      attr {
        key: "dtype"
        value {
          type: DT_INT32
        }
      }
      attr {
        key: "value"
        value {
          tensor {
            dtype: DT_INT32
            tensor_shape {
              dim {
                size: 3
              }
            }
            tensor_content: "\001\000\000\000\001\000\000\000\377\377\377\377"
          }
        }
      }
    }
    node {
      name: "Reshape_1"
      op: "Reshape"
      input: "strided_slice_1"
      input: "Reshape_1/shape"
      attr {
        key: "T"
        value {
          type: DT_FLOAT
        }
      }
      attr {
        key: "Tshape"
        value {
          type: DT_INT32
        }
      }
      attr {
        key: "_output_shapes"
        value {
          list {
            shape {
              dim {
                size: 1
              }
              dim {
                size: 1
              }
              dim {
                size: 960
              }
            }
          }
        }
      }
    }
    node {
      name: "random_normal/shape"
      op: "Const"
      attr {
        key: "_output_shapes"
        value {
          list {
            shape {
              dim {
                size: 2
              }
            }
          }
        }
      }
      attr {
        key: "dtype"
        value {
          type: DT_INT32
        }
      }
      attr {
        key: "value"
        value {
          tensor {
            dtype: DT_INT32
            tensor_shape {
              dim {
                size: 2
              }
            }
            tensor_content: "\300\003\000\000p\000\000\000"
          }
        }
      }
    }
    node {
      name: "random_normal/mean"
      op: "Const"
      attr {
        key: "_output_shapes"
        value {
          list {
            shape {
            }
          }
        }
      }
      attr {
        key: "dtype"
        value {
          type: DT_FLOAT
        }
      }
      attr {
        key: "value"
        value {
          tensor {
            dtype: DT_FLOAT
            tensor_shape {
            }
            float_val: 0.0
          }
        }
      }
    }
    node {
      name: "random_normal/stddev"
      op: "Const"
      attr {
        key: "_output_shapes"
        value {
          list {
            shape {
            }
          }
        }
      }
      attr {
        key: "dtype"
        value {
          type: DT_FLOAT
        }
      }
      attr {
        key: "value"
        value {
          tensor {
            dtype: DT_FLOAT
            tensor_shape {
            }
            float_val: 1.0
          }
        }
      }
    }
    node {
      name: "random_normal/RandomStandardNormal"
      op: "RandomStandardNormal"
      input: "random_normal/shape"
      attr {
        key: "T"
        value {
          type: DT_INT32
        }
      }
      attr {
        key: "_output_shapes"
        value {
          list {
            shape {
              dim {
                size: 960
              }
              dim {
                size: 112
              }
            }
          }
        }
      }
      attr {
        key: "dtype"
        value {
          type: DT_FLOAT
        }
      }
      attr {
        key: "seed"
        value {
          i: 0
        }
      }
      attr {
        key: "seed2"
        value {
          i: 0
        }
      }
    }
    node {
      name: "random_normal/mul"
      op: "Mul"
      input: "random_normal/RandomStandardNormal"
      input: "random_normal/stddev"
      attr {
        key: "T"
        value {
          type: DT_FLOAT
        }
      }
      attr {
        key: "_output_shapes"
        value {
          list {
            shape {
              dim {
                size: 960
              }
              dim {
                size: 112
              }
            }
          }
        }
      }
    }
    node {
      name: "random_normal"
      op: "Add"
      input: "random_normal/mul"
      input: "random_normal/mean"
      attr {
        key: "T"
        value {
          type: DT_FLOAT
        }
      }
      attr {
        key: "_output_shapes"
        value {
          list {
            shape {
              dim {
                size: 960
              }
              dim {
                size: 112
              }
            }
          }
        }
      }
    }
    node {
      name: "output_w1"
      op: "VariableV2"
      attr {
        key: "_output_shapes"
        value {
          list {
            shape {
              dim {
                size: 960
              }
              dim {
                size: 112
              }
            }
          }
        }
      }
      attr {
        key: "container"
        value {
          s: ""
        }
      }
      attr {
        key: "dtype"
        value {
          type: DT_FLOAT
        }
      }
      attr {
        key: "shape"
        value {
          shape {
            dim {
              size: 960
            }
            dim {
              size: 112
            }
          }
        }
      }
      attr {
        key: "shared_name"
        value {
          s: ""
        }
      }
    }
    node {
      name: "output_w1/Assign"
      op: "Assign"
      input: "output_w1"
      input: "random_normal"
      attr {
        key: "T"
        value {
          type: DT_FLOAT
        }
      }
      attr {
        key: "_class"
        value {
          list {
            s: "loc:@output_w1"
          }
        }
      }
      attr {
        key: "_output_shapes"
        value {
          list {
            shape {
              dim {
                size: 960
              }
              dim {
                size: 112
              }
            }
          }
        }
      }
      attr {
        key: "use_locking"
        value {
          b: true
        }
      }
      attr {
        key: "validate_shape"
        value {
          b: true
        }
      }
    }
    node {
      name: "output_w1/read"
      op: "Identity"
      input: "output_w1"
      attr {
        key: "T"
        value {
          type: DT_FLOAT
        }
      }
      attr {
        key: "_class"
        value {
          list {
            s: "loc:@output_w1"
          }
        }
      }
      attr {
        key: "_output_shapes"
        value {
          list {
            shape {
              dim {
                size: 960
              }
              dim {
                size: 112
              }
            }
          }
        }
      }
    }
    node {
      name: "zeros_3"
      op: "Const"
      attr {
        key: "_output_shapes"
        value {
          list {
            shape {
              dim {
                size: 112
              }
            }
          }
        }
      }
      attr {
        key: "dtype"
        value {
          type: DT_FLOAT
        }
      }
      attr {
        key: "value"
        value {
          tensor {
            dtype: DT_FLOAT
            tensor_shape {
              dim {
                size: 112
              }
            }
            float_val: 0.0
          }
        }
      }
    }
    node {
      name: "output_b1"
      op: "VariableV2"
      attr {
        key: "_output_shapes"
        value {
          list {
            shape {
              dim {
                size: 112
              }
            }
          }
        }
      }
      attr {
        key: "container"
        value {
          s: ""
        }
      }
      attr {
        key: "dtype"
        value {
          type: DT_FLOAT
        }
      }
      attr {
        key: "shape"
        value {
          shape {
            dim {
              size: 112
            }
          }
        }
      }
      attr {
        key: "shared_name"
        value {
          s: ""
        }
      }
    }
    node {
      name: "output_b1/Assign"
      op: "Assign"
      input: "output_b1"
      input: "zeros_3"
      attr {
        key: "T"
        value {
          type: DT_FLOAT
        }
      }
      attr {
        key: "_class"
        value {
          list {
            s: "loc:@output_b1"
          }
        }
      }
      attr {
        key: "_output_shapes"
        value {
          list {
            shape {
              dim {
                size: 112
              }
            }
          }
        }
      }
      attr {
        key: "use_locking"
        value {
          b: true
        }
      }
      attr {
        key: "validate_shape"
        value {
          b: true
        }
      }
    }
    node {
      name: "output_b1/read"
      op: "Identity"
      input: "output_b1"
      attr {
        key: "T"
        value {
          type: DT_FLOAT
        }
      }
      attr {
        key: "_class"
        value {
          list {
            s: "loc:@output_b1"
          }
        }
      }
      attr {
        key: "_output_shapes"
        value {
          list {
            shape {
              dim {
                size: 112
              }
            }
          }
        }
      }
    }
    node {
      name: "Reshape_2/shape"
      op: "Const"
      attr {
        key: "_output_shapes"
        value {
          list {
            shape {
              dim {
                size: 2
              }
            }
          }
        }
      }
      attr {
        key: "dtype"
        value {
          type: DT_INT32
        }
      }
      attr {
        key: "value"
        value {
          tensor {
            dtype: DT_INT32
            tensor_shape {
              dim {
                size: 2
              }
            }
            tensor_content: "\377\377\377\377\300\003\000\000"
          }
        }
      }
    }
    node {
      name: "Reshape_2"
      op: "Reshape"
      input: "Reshape_1"
      input: "Reshape_2/shape"
      attr {
        key: "T"
        value {
          type: DT_FLOAT
        }
      }
      attr {
        key: "Tshape"
        value {
          type: DT_INT32
        }
      }
      attr {
        key: "_output_shapes"
        value {
          list {
            shape {
              dim {
                size: 1
              }
              dim {
                size: 960
              }
            }
          }
        }
      }
    }
    node {
      name: "MatMul"
      op: "MatMul"
      input: "Reshape_2"
      input: "output_w1/read"
      attr {
        key: "T"
        value {
          type: DT_FLOAT
        }
      }
      attr {
        key: "_output_shapes"
        value {
          list {
            shape {
              dim {
                size: 1
              }
              dim {
                size: 112
              }
            }
          }
        }
      }
      attr {
        key: "transpose_a"
        value {
          b: false
        }
      }
      attr {
        key: "transpose_b"
        value {
          b: false
        }
      }
    }
    node {
      name: "add_1"
      op: "Add"
      input: "MatMul"
      input: "output_b1/read"
      attr {
        key: "T"
        value {
          type: DT_FLOAT
        }
      }
      attr {
        key: "_output_shapes"
        value {
          list {
            shape {
              dim {
                size: 1
              }
              dim {
                size: 112
              }
            }
          }
        }
      }
    }
    node {
      name: "Reshape_3/shape"
      op: "Const"
      attr {
        key: "_output_shapes"
        value {
          list {
            shape {
              dim {
                size: 2
              }
            }
          }
        }
      }
      attr {
        key: "dtype"
        value {
          type: DT_INT32
        }
      }
      attr {
        key: "value"
        value {
          tensor {
            dtype: DT_INT32
            tensor_shape {
              dim {
                size: 2
              }
            }
            tensor_content: "\377\377\377\377\002\000\000\000"
          }
        }
      }
    }
    node {
      name: "Reshape_3"
      op: "Reshape"
      input: "add_1"
      input: "Reshape_3/shape"
      attr {
        key: "T"
        value {
          type: DT_FLOAT
        }
      }
      attr {
        key: "Tshape"
        value {
          type: DT_INT32
        }
      }
      attr {
        key: "_output_shapes"
        value {
          list {
            shape {
              dim {
                size: 56
              }
              dim {
                size: 2
              }
            }
          }
        }
      }
    }
    node {
      name: "Softmax"
      op: "Softmax"
      input: "Reshape_3"
      attr {
        key: "T"
        value {
          type: DT_FLOAT
        }
      }
      attr {
        key: "_output_shapes"
        value {
          list {
            shape {
              dim {
                size: 56
              }
              dim {
                size: 2
              }
            }
          }
        }
      }
    }
    node {
      name: "y/shape"
      op: "Const"
      attr {
        key: "_output_shapes"
        value {
          list {
            shape {
              dim {
                size: 4
              }
            }
          }
        }
      }
      attr {
        key: "dtype"
        value {
          type: DT_INT32
        }
      }
      attr {
        key: "value"
        value {
          tensor {
            dtype: DT_INT32
            tensor_shape {
              dim {
                size: 4
              }
            }
            tensor_content: "\001\000\000\000\001\000\000\0008\000\000\000\002\000\000\000"
          }
        }
      }
    }
    node {
      name: "y"
      op: "Reshape"
      input: "Softmax"
      input: "y/shape"
      attr {
        key: "T"
        value {
          type: DT_FLOAT
        }
      }
      attr {
        key: "Tshape"
        value {
          type: DT_INT32
        }
      }
      attr {
        key: "_output_shapes"
        value {
          list {
            shape {
              dim {
                size: 1
              }
              dim {
                size: 1
              }
              dim {
                size: 56
              }
              dim {
                size: 2
              }
            }
          }
        }
      }
    }
    node {
      name: "strided_slice_2/stack"
      op: "Const"
      attr {
        key: "_output_shapes"
        value {
          list {
            shape {
              dim {
                size: 4
              }
            }
          }
        }
      }
      attr {
        key: "dtype"
        value {
          type: DT_INT32
        }
      }
      attr {
        key: "value"
        value {
          tensor {
            dtype: DT_INT32
            tensor_shape {
              dim {
                size: 4
              }
            }
            tensor_content: "\000\000\000\000\000\000\000\000\000\000\000\000\001\000\000\000"
          }
        }
      }
    }
    node {
      name: "strided_slice_2/stack_1"
      op: "Const"
      attr {
        key: "_output_shapes"
        value {
          list {
            shape {
              dim {
                size: 4
              }
            }
          }
        }
      }
      attr {
        key: "dtype"
        value {
          type: DT_INT32
        }
      }
      attr {
        key: "value"
        value {
          tensor {
            dtype: DT_INT32
            tensor_shape {
              dim {
                size: 4
              }
            }
            tensor_content: "\000\000\000\000\000\000\000\000\000\000\000\000\002\000\000\000"
          }
        }
      }
    }
    node {
      name: "strided_slice_2/stack_2"
      op: "Const"
      attr {
        key: "_output_shapes"
        value {
          list {
            shape {
              dim {
                size: 4
              }
            }
          }
        }
      }
      attr {
        key: "dtype"
        value {
          type: DT_INT32
        }
      }
      attr {
        key: "value"
        value {
          tensor {
            dtype: DT_INT32
            tensor_shape {
              dim {
                size: 4
              }
            }
            tensor_content: "\001\000\000\000\001\000\000\000\001\000\000\000\001\000\000\000"
          }
        }
      }
    }
    node {
      name: "strided_slice_2"
      op: "StridedSlice"
      input: "y"
      input: "strided_slice_2/stack"
      input: "strided_slice_2/stack_1"
      input: "strided_slice_2/stack_2"
      attr {
        key: "Index"
        value {
          type: DT_INT32
        }
      }
      attr {
        key: "T"
        value {
          type: DT_FLOAT
        }
      }
      attr {
        key: "_output_shapes"
        value {
          list {
            shape {
              dim {
                size: 1
              }
              dim {
                size: 1
              }
              dim {
                size: 56
              }
            }
          }
        }
      }
      attr {
        key: "begin_mask"
        value {
          i: 7
        }
      }
      attr {
        key: "ellipsis_mask"
        value {
          i: 0
        }
      }
      attr {
        key: "end_mask"
        value {
          i: 7
        }
      }
      attr {
        key: "new_axis_mask"
        value {
          i: 0
        }
      }
      attr {
        key: "shrink_axis_mask"
        value {
          i: 8
        }
      }
    }
    node {
      name: "predictions"
      op: "Identity"
      input: "strided_slice_2"
      attr {
        key: "T"
        value {
          type: DT_FLOAT
        }
      }
      attr {
        key: "_output_shapes"
        value {
          list {
            shape {
              dim {
                size: 1
              }
              dim {
                size: 1
              }
              dim {
                size: 56
              }
            }
          }
        }
      }
    }
    node {
      name: "clip_by_value/Minimum/y"
      op: "Const"
      attr {
        key: "_output_shapes"
        value {
          list {
            shape {
            }
          }
        }
      }
      attr {
        key: "dtype"
        value {
          type: DT_FLOAT
        }
      }
      attr {
        key: "value"
        value {
          tensor {
            dtype: DT_FLOAT
            tensor_shape {
            }
            float_val: 1.0
          }
        }
      }
    }
    node {
      name: "clip_by_value/Minimum"
      op: "Minimum"
      input: "y"
      input: "clip_by_value/Minimum/y"
      attr {
        key: "T"
        value {
          type: DT_FLOAT
        }
      }
      attr {
        key: "_output_shapes"
        value {
          list {
            shape {
              dim {
                size: 1
              }
              dim {
                size: 1
              }
              dim {
                size: 56
              }
              dim {
                size: 2
              }
            }
          }
        }
      }
    }
    node {
      name: "clip_by_value/y"
      op: "Const"
      attr {
        key: "_output_shapes"
        value {
          list {
            shape {
            }
          }
        }
      }
      attr {
        key: "dtype"
        value {
          type: DT_FLOAT
        }
      }
      attr {
        key: "value"
        value {
          tensor {
            dtype: DT_FLOAT
            tensor_shape {
            }
            float_val: 1.000000013351432e-10
          }
        }
      }
    }
    node {
      name: "clip_by_value"
      op: "Maximum"
      input: "clip_by_value/Minimum"
      input: "clip_by_value/y"
      attr {
        key: "T"
        value {
          type: DT_FLOAT
        }
      }
      attr {
        key: "_output_shapes"
        value {
          list {
            shape {
              dim {
                size: 1
              }
              dim {
                size: 1
              }
              dim {
                size: 56
              }
              dim {
                size: 2
              }
            }
          }
        }
      }
    }
    node {
      name: "Log"
      op: "Log"
      input: "clip_by_value"
      attr {
        key: "T"
        value {
          type: DT_FLOAT
        }
      }
      attr {
        key: "_output_shapes"
        value {
          list {
            shape {
              dim {
                size: 1
              }
              dim {
                size: 1
              }
              dim {
                size: 56
              }
              dim {
                size: 2
              }
            }
          }
        }
      }
    }
    node {
      name: "mul"
      op: "Mul"
      input: "targets"
      input: "Log"
      attr {
        key: "T"
        value {
          type: DT_FLOAT
        }
      }
      attr {
        key: "_output_shapes"
        value {
          list {
            shape {
              dim {
                size: 1
              }
              dim {
                size: 1
              }
              dim {
                size: 56
              }
              dim {
                size: 2
              }
            }
          }
        }
      }
    }
    node {
      name: "Sum/reduction_indices"
      op: "Const"
      attr {
        key: "_output_shapes"
        value {
          list {
            shape {
              dim {
                size: 1
              }
            }
          }
        }
      }
      attr {
        key: "dtype"
        value {
          type: DT_INT32
        }
      }
      attr {
        key: "value"
        value {
          tensor {
            dtype: DT_INT32
            tensor_shape {
              dim {
                size: 1
              }
            }
            int_val: 1
          }
        }
      }
    }
    node {
      name: "Sum"
      op: "Sum"
      input: "mul"
      input: "Sum/reduction_indices"
      attr {
        key: "T"
        value {
          type: DT_FLOAT
        }
      }
      attr {
        key: "Tidx"
        value {
          type: DT_INT32
        }
      }
      attr {
        key: "_output_shapes"
        value {
          list {
            shape {
              dim {
                size: 1
              }
              dim {
                size: 56
              }
              dim {
                size: 2
              }
            }
          }
        }
      }
      attr {
        key: "keep_dims"
        value {
          b: false
        }
      }
    }
    node {
      name: "Const"
      op: "Const"
      attr {
        key: "_output_shapes"
        value {
          list {
            shape {
              dim {
                size: 3
              }
            }
          }
        }
      }
      attr {
        key: "dtype"
        value {
          type: DT_INT32
        }
      }
      attr {
        key: "value"
        value {
          tensor {
            dtype: DT_INT32
            tensor_shape {
              dim {
                size: 3
              }
            }
            tensor_content: "\000\000\000\000\001\000\000\000\002\000\000\000"
          }
        }
      }
    }
    node {
      name: "Mean"
      op: "Mean"
      input: "Sum"
      input: "Const"
      attr {
        key: "T"
        value {
          type: DT_FLOAT
        }
      }
      attr {
        key: "Tidx"
        value {
          type: DT_INT32
        }
      }
      attr {
        key: "_output_shapes"
        value {
          list {
            shape {
            }
          }
        }
      }
      attr {
        key: "keep_dims"
        value {
          b: false
        }
      }
    }
    node {
      name: "Neg"
      op: "Neg"
      input: "Mean"
      attr {
        key: "T"
        value {
          type: DT_FLOAT
        }
      }
      attr {
        key: "_output_shapes"
        value {
          list {
            shape {
            }
          }
        }
      }
    }
    node {
      name: "gradients/Shape"
      op: "Const"
      attr {
        key: "_output_shapes"
        value {
          list {
            shape {
              dim {
              }
            }
          }
        }
      }
      attr {
        key: "dtype"
        value {
          type: DT_INT32
        }
      }
      attr {
        key: "value"
        value {
          tensor {
            dtype: DT_INT32
            tensor_shape {
              dim {
              }
            }
          }
        }
      }
    }
    node {
      name: "gradients/Const"
      op: "Const"
      attr {
        key: "_output_shapes"
        value {
          list {
            shape {
            }
          }
        }
      }
      attr {
        key: "dtype"
        value {
          type: DT_FLOAT
        }
      }
      attr {
        key: "value"
        value {
          tensor {
            dtype: DT_FLOAT
            tensor_shape {
            }
            float_val: 1.0
          }
        }
      }
    }
    node {
      name: "gradients/Fill"
      op: "Fill"
      input: "gradients/Shape"
      input: "gradients/Const"
      attr {
        key: "T"
        value {
          type: DT_FLOAT
        }
      }
      attr {
        key: "_output_shapes"
        value {
          list {
            shape {
            }
          }
        }
      }
    }
    node {
      name: "gradients/Neg_grad/Neg"
      op: "Neg"
      input: "gradients/Fill"
      attr {
        key: "T"
        value {
          type: DT_FLOAT
        }
      }
      attr {
        key: "_output_shapes"
        value {
          list {
            shape {
            }
          }
        }
      }
    }
    node {
      name: "gradients/Mean_grad/Reshape/shape"
      op: "Const"
      attr {
        key: "_output_shapes"
        value {
          list {
            shape {
              dim {
                size: 3
              }
            }
          }
        }
      }
      attr {
        key: "dtype"
        value {
          type: DT_INT32
        }
      }
      attr {
        key: "value"
        value {
          tensor {
            dtype: DT_INT32
            tensor_shape {
              dim {
                size: 3
              }
            }
            tensor_content: "\001\000\000\000\001\000\000\000\001\000\000\000"
          }
        }
      }
    }
    node {
      name: "gradients/Mean_grad/Reshape"
      op: "Reshape"
      input: "gradients/Neg_grad/Neg"
      input: "gradients/Mean_grad/Reshape/shape"
      attr {
        key: "T"
        value {
          type: DT_FLOAT
        }
      }
      attr {
        key: "Tshape"
        value {
          type: DT_INT32
        }
      }
      attr {
        key: "_output_shapes"
        value {
          list {
            shape {
              dim {
                size: 1
              }
              dim {
                size: 1
              }
              dim {
                size: 1
              }
            }
          }
        }
      }
    }
    node {
      name: "gradients/Mean_grad/Tile/multiples"
      op: "Const"
      attr {
        key: "_output_shapes"
        value {
          list {
            shape {
              dim {
                size: 3
              }
            }
          }
        }
      }
      attr {
        key: "dtype"
        value {
          type: DT_INT32
        }
      }
      attr {
        key: "value"
        value {
          tensor {
            dtype: DT_INT32
            tensor_shape {
              dim {
                size: 3
              }
            }
            tensor_content: "\001\000\000\0008\000\000\000\002\000\000\000"
          }
        }
      }
    }
    node {
      name: "gradients/Mean_grad/Tile"
      op: "Tile"
      input: "gradients/Mean_grad/Reshape"
      input: "gradients/Mean_grad/Tile/multiples"
      attr {
        key: "T"
        value {
          type: DT_FLOAT
        }
      }
      attr {
        key: "Tmultiples"
        value {
          type: DT_INT32
        }
      }
      attr {
        key: "_output_shapes"
        value {
          list {
            shape {
              dim {
                size: 1
              }
              dim {
                size: 56
              }
              dim {
                size: 2
              }
            }
          }
        }
      }
    }
    node {
      name: "gradients/Mean_grad/Shape"
      op: "Const"
      attr {
        key: "_output_shapes"
        value {
          list {
            shape {
              dim {
                size: 3
              }
            }
          }
        }
      }
      attr {
        key: "dtype"
        value {
          type: DT_INT32
        }
      }
      attr {
        key: "value"
        value {
          tensor {
            dtype: DT_INT32
            tensor_shape {
              dim {
                size: 3
              }
            }
            tensor_content: "\001\000\000\0008\000\000\000\002\000\000\000"
          }
        }
      }
    }
    node {
      name: "gradients/Mean_grad/Shape_1"
      op: "Const"
      attr {
        key: "_output_shapes"
        value {
          list {
            shape {
              dim {
              }
            }
          }
        }
      }
      attr {
        key: "dtype"
        value {
          type: DT_INT32
        }
      }
      attr {
        key: "value"
        value {
          tensor {
            dtype: DT_INT32
            tensor_shape {
              dim {
              }
            }
          }
        }
      }
    }
    node {
      name: "gradients/Mean_grad/Const"
      op: "Const"
      attr {
        key: "_output_shapes"
        value {
          list {
            shape {
              dim {
                size: 1
              }
            }
          }
        }
      }
      attr {
        key: "dtype"
        value {
          type: DT_INT32
        }
      }
      attr {
        key: "value"
        value {
          tensor {
            dtype: DT_INT32
            tensor_shape {
              dim {
                size: 1
              }
            }
…
            s: "loc:@conv2d_1/bias"
          }
        }
      }
      attr {
        key: "_output_shapes"
        value {
          list {
            shape {
              dim {
                size: 32
              }
            }
          }
        }
      }
      attr {
        key: "use_locking"
        value {
          b: true
        }
      }
      attr {
        key: "validate_shape"
        value {
          b: true
        }
      }
    }
    node {
      name: "save_1/RestoreV2_9/tensor_names"
      op: "Const"
      attr {
        key: "_output_shapes"
        value {
          list {
            shape {
              dim {
                size: 1
              }
            }
          }
        }
      }
      attr {
        key: "dtype"
        value {
          type: DT_STRING
        }
      }
      attr {
        key: "value"
        value {
          tensor {
            dtype: DT_STRING
            tensor_shape {
              dim {
                size: 1
              }
            }
            string_val: "conv2d_1/bias/Adam"
          }
        }
      }
    }
    node {
      name: "save_1/RestoreV2_9/shape_and_slices"
      op: "Const"
      attr {
        key: "_output_shapes"
        value {
          list {
            shape {
              dim {
                size: 1
              }
            }
          }
        }
      }
      attr {
        key: "dtype"
        value {
          type: DT_STRING
        }
      }
      attr {
        key: "value"
        value {
          tensor {
            dtype: DT_STRING
            tensor_shape {
              dim {
                size: 1
              }
            }
            string_val: ""
          }
        }
      }
    }
    node {
      name: "save_1/RestoreV2_9"
      op: "RestoreV2"
      input: "save_1/Const"
      input: "save_1/RestoreV2_9/tensor_names"
      input: "save_1/RestoreV2_9/shape_and_slices"
      attr {
        key: "_output_shapes"
        value {
          list {
            shape {
              unknown_rank: true
            }
          }
        }
      }
      attr {
        key: "dtypes"
        value {
          list {
            type: DT_FLOAT
          }
        }
      }
    }
    node {
      name: "save_1/Assign_9"
      op: "Assign"
      input: "conv2d_1/bias/Adam"
      input: "save_1/RestoreV2_9"
      attr {
        key: "T"
        value {
          type: DT_FLOAT
        }
      }
      attr {
        key: "_class"
        value {
          list {
            s: "loc:@conv2d_1/bias"
          }
        }
      }
      attr {
        key: "_output_shapes"
        value {
          list {
            shape {
              dim {
                size: 32
              }
            }
          }
        }
      }
      attr {
        key: "use_locking"
        value {
          b: true
        }
      }
      attr {
        key: "validate_shape"
        value {
          b: true
        }
      }
    }
    node {
      name: "save_1/RestoreV2_10/tensor_names"
      op: "Const"
      attr {
        key: "_output_shapes"
        value {
          list {
            shape {
              dim {
                size: 1
              }
            }
          }
        }
      }
      attr {
        key: "dtype"
        value {
          type: DT_STRING
        }
      }
      attr {
        key: "value"
        value {
          tensor {
            dtype: DT_STRING
            tensor_shape {
              dim {
                size: 1
              }
            }
            string_val: "conv2d_1/bias/Adam_1"
          }
        }
      }
    }
    node {
      name: "save_1/RestoreV2_10/shape_and_slices"
      op: "Const"
      attr {
        key: "_output_shapes"
        value {
          list {
            shape {
              dim {
                size: 1
              }
            }
          }
        }
      }
      attr {
        key: "dtype"
        value {
          type: DT_STRING
        }
      }
      attr {
        key: "value"
        value {
          tensor {
            dtype: DT_STRING
            tensor_shape {
              dim {
                size: 1
              }
            }
            string_val: ""
          }
        }
      }
    }
    node {
      name: "save_1/RestoreV2_10"
      op: "RestoreV2"
      input: "save_1/Const"
      input: "save_1/RestoreV2_10/tensor_names"
      input: "save_1/RestoreV2_10/shape_and_slices"
      attr {
        key: "_output_shapes"
        value {
          list {
            shape {
              unknown_rank: true
            }
          }
        }
      }
      attr {
        key: "dtypes"
        value {
          list {
            type: DT_FLOAT
          }
        }
      }
    }
    node {
      name: "save_1/Assign_10"
      op: "Assign"
      input: "conv2d_1/bias/Adam_1"
      input: "save_1/RestoreV2_10"
      attr {
        key: "T"
        value {
          type: DT_FLOAT
        }
      }
      attr {
        key: "_class"
        value {
          list {
            s: "loc:@conv2d_1/bias"
          }
        }
      }
      attr {
        key: "_output_shapes"
        value {
          list {
            shape {
              dim {
                size: 32
              }
            }
          }
        }
      }
      attr {
        key: "use_locking"
        value {
          b: true
        }
      }
      attr {
        key: "validate_shape"
        value {
          b: true
        }
      }
    }
    node {
      name: "save_1/RestoreV2_11/tensor_names"
      op: "Const"
      attr {
        key: "_output_shapes"
        value {
          list {
            shape {
              dim {
                size: 1
              }
            }
          }
        }
      }
      attr {
        key: "dtype"
        value {
          type: DT_STRING
        }
      }
      attr {
        key: "value"
        value {
          tensor {
            dtype: DT_STRING
            tensor_shape {
              dim {
                size: 1
              }
            }
            string_val: "conv2d_1/kernel"
          }
        }
      }
    }
    node {
      name: "save_1/RestoreV2_11/shape_and_slices"
      op: "Const"
      attr {
        key: "_output_shapes"
        value {
          list {
            shape {
              dim {
                size: 1
              }
            }
          }
        }
      }
      attr {
        key: "dtype"
        value {
          type: DT_STRING
        }
      }
      attr {
        key: "value"
        value {
          tensor {
            dtype: DT_STRING
            tensor_shape {
              dim {
                size: 1
              }
            }
            string_val: ""
          }
        }
      }
    }
    node {
      name: "save_1/RestoreV2_11"
      op: "RestoreV2"
      input: "save_1/Const"
      input: "save_1/RestoreV2_11/tensor_names"
      input: "save_1/RestoreV2_11/shape_and_slices"
      attr {
        key: "_output_shapes"
        value {
          list {
            shape {
              unknown_rank: true
            }
          }
        }
      }
      attr {
        key: "dtypes"
        value {
          list {
            type: DT_FLOAT
          }
        }
      }
    }
    node {
      name: "save_1/Assign_11"
      op: "Assign"
      input: "conv2d_1/kernel"
      input: "save_1/RestoreV2_11"
      attr {
        key: "T"
        value {
          type: DT_FLOAT
        }
      }
      attr {
        key: "_class"
        value {
          list {
            s: "loc:@conv2d_1/kernel"
          }
        }
      }
      attr {
        key: "_output_shapes"
        value {
          list {
            shape {
              dim {
                size: 5
              }
              dim {
                size: 10
              }
              dim {
                size: 32
              }
              dim {
                size: 32
              }
            }
          }
        }
      }
      attr {
        key: "use_locking"
        value {
          b: true
        }
      }
      attr {
        key: "validate_shape"
        value {
          b: true
        }
      }
    }
    node {
      name: "save_1/RestoreV2_12/tensor_names"
      op: "Const"
      attr {
        key: "_output_shapes"
        value {
          list {
            shape {
              dim {
                size: 1
              }
            }
          }
        }
      }
      attr {
        key: "dtype"
        value {
          type: DT_STRING
        }
      }
      attr {
        key: "value"
        value {
          tensor {
            dtype: DT_STRING
            tensor_shape {
              dim {
                size: 1
              }
            }
            string_val: "conv2d_1/kernel/Adam"
          }
        }
      }
    }
    node {
      name: "save_1/RestoreV2_12/shape_and_slices"
      op: "Const"
      attr {
        key: "_output_shapes"
        value {
          list {
            shape {
              dim {
                size: 1
              }
            }
          }
        }
      }
      attr {
        key: "dtype"
        value {
          type: DT_STRING
        }
      }
      attr {
        key: "value"
        value {
          tensor {
            dtype: DT_STRING
            tensor_shape {
              dim {
                size: 1
              }
            }
            string_val: ""
          }
        }
      }
    }
    node {
      name: "save_1/RestoreV2_12"
      op: "RestoreV2"
      input: "save_1/Const"
      input: "save_1/RestoreV2_12/tensor_names"
      input: "save_1/RestoreV2_12/shape_and_slices"
      attr {
        key: "_output_shapes"
        value {
          list {
            shape {
              unknown_rank: true
            }
          }
        }
      }
      attr {
        key: "dtypes"
        value {
          list {
            type: DT_FLOAT
          }
        }
      }
    }
    node {
      name: "save_1/Assign_12"
      op: "Assign"
      input: "conv2d_1/kernel/Adam"
      input: "save_1/RestoreV2_12"
      attr {
        key: "T"
        value {
          type: DT_FLOAT
        }
      }
      attr {
        key: "_class"
        value {
          list {
            s: "loc:@conv2d_1/kernel"
          }
        }
      }
      attr {
        key: "_output_shapes"
        value {
          list {
            shape {
              dim {
                size: 5
              }
              dim {
                size: 10
              }
              dim {
                size: 32
              }
              dim {
                size: 32
              }
            }
          }
        }
      }
      attr {
        key: "use_locking"
        value {
          b: true
        }
      }
      attr {
        key: "validate_shape"
        value {
          b: true
        }
      }
    }
    node {
      name: "save_1/RestoreV2_13/tensor_names"
      op: "Const"
      attr {
        key: "_output_shapes"
        value {
          list {
            shape {
              dim {
                size: 1
              }
            }
          }
        }
      }
      attr {
        key: "dtype"
        value {
          type: DT_STRING
        }
      }
      attr {
        key: "value"
        value {
          tensor {
            dtype: DT_STRING
            tensor_shape {
              dim {
                size: 1
              }
            }
            string_val: "conv2d_1/kernel/Adam_1"
          }
        }
      }
    }
    node {
      name: "save_1/RestoreV2_13/shape_and_slices"
      op: "Const"
      attr {
        key: "_output_shapes"
        value {
          list {
            shape {
              dim {
                size: 1
              }
            }
          }
        }
      }
      attr {
        key: "dtype"
        value {
          type: DT_STRING
        }
      }
      attr {
        key: "value"
        value {
          tensor {
            dtype: DT_STRING
            tensor_shape {
              dim {
                size: 1
              }
            }
            string_val: ""
          }
        }
      }
    }
    node {
      name: "save_1/RestoreV2_13"
      op: "RestoreV2"
      input: "save_1/Const"
      input: "save_1/RestoreV2_13/tensor_names"
      input: "save_1/RestoreV2_13/shape_and_slices"
      attr {
        key: "_output_shapes"
        value {
          list {
            shape {
              unknown_rank: true
            }
          }
        }
      }
      attr {
        key: "dtypes"
        value {
          list {
            type: DT_FLOAT
          }
        }
      }
    }
    node {
      name: "save_1/Assign_13"
      op: "Assign"
      input: "conv2d_1/kernel/Adam_1"
      input: "save_1/RestoreV2_13"
      attr {
        key: "T"
        value {
          type: DT_FLOAT
        }
      }
      attr {
        key: "_class"
        value {
          list {
            s: "loc:@conv2d_1/kernel"
          }
        }
      }
      attr {
        key: "_output_shapes"
        value {
          list {
            shape {
              dim {
                size: 5
              }
              dim {
                size: 10
              }
              dim {
                size: 32
              }
              dim {
                size: 32
              }
            }
          }
        }
      }
      attr {
        key: "use_locking"
        value {
          b: true
        }
      }
      attr {
        key: "validate_shape"
        value {
          b: true
        }
      }
    }
    node {
      name: "save_1/RestoreV2_14/tensor_names"
      op: "Const"
      attr {
        key: "_output_shapes"
        value {
          list {
            shape {
              dim {
                size: 1
              }
            }
          }
        }
      }
      attr {
        key: "dtype"
        value {
          type: DT_STRING
        }
      }
      attr {
        key: "value"
        value {
          tensor {
            dtype: DT_STRING
            tensor_shape {
              dim {
                size: 1
              }
            }
            string_val: "conv2d_2/bias"
          }
        }
      }
    }
    node {
      name: "save_1/RestoreV2_14/shape_and_slices"
      op: "Const"
      attr {
        key: "_output_shapes"
        value {
          list {
            shape {
              dim {
                size: 1
              }
            }
          }
        }
      }
      attr {
        key: "dtype"
        value {
          type: DT_STRING
        }
      }
      attr {
        key: "value"
        value {
          tensor {
            dtype: DT_STRING
            tensor_shape {
              dim {
                size: 1
              }
            }
            string_val: ""
          }
        }
      }
    }
    node {
      name: "save_1/RestoreV2_14"
      op: "RestoreV2"
      input: "save_1/Const"
      input: "save_1/RestoreV2_14/tensor_names"
      input: "save_1/RestoreV2_14/shape_and_slices"
      attr {
        key: "_output_shapes"
        value {
          list {
            shape {
              unknown_rank: true
            }
          }
        }
      }
      attr {
        key: "dtypes"
        value {
          list {
            type: DT_FLOAT
          }
        }
      }
    }
    node {
      name: "save_1/Assign_14"
      op: "Assign"
      input: "conv2d_2/bias"
      input: "save_1/RestoreV2_14"
      attr {
        key: "T"
        value {
          type: DT_FLOAT
        }
      }
      attr {
        key: "_class"
        value {
          list {
            s: "loc:@conv2d_2/bias"
          }
        }
      }
      attr {
        key: "_output_shapes"
        value {
          list {
            shape {
              dim {
                size: 32
              }
            }
          }
        }
      }
      attr {
        key: "use_locking"
        value {
          b: true
        }
      }
      attr {
        key: "validate_shape"
        value {
          b: true
        }
      }
    }
    node {
      name: "save_1/RestoreV2_15/tensor_names"
      op: "Const"
      attr {
        key: "_output_shapes"
        value {
          list {
            shape {
              dim {
                size: 1
              }
            }
          }
        }
      }
      attr {
        key: "dtype"
        value {
          type: DT_STRING
        }
      }
      attr {
        key: "value"
        value {
          tensor {
            dtype: DT_STRING
            tensor_shape {
              dim {
                size: 1
              }
            }
            string_val: "conv2d_2/bias/Adam"
          }
        }
      }
    }
    node {
      name: "save_1/RestoreV2_15/shape_and_slices"
      op: "Const"
      attr {
        key: "_output_shapes"
        value {
          list {
            shape {
              dim {
                size: 1
              }
            }
          }
        }
      }
      attr {
        key: "dtype"
        value {
          type: DT_STRING
        }
      }
      attr {
        key: "value"
        value {
          tensor {
            dtype: DT_STRING
            tensor_shape {
              dim {
                size: 1
              }
            }
            string_val: ""
          }
        }
      }
    }
    node {
      name: "save_1/RestoreV2_15"
      op: "RestoreV2"
      input: "save_1/Const"
      input: "save_1/RestoreV2_15/tensor_names"
      input: "save_1/RestoreV2_15/shape_and_slices"
      attr {
        key: "_output_shapes"
        value {
          list {
            shape {
              unknown_rank: true
            }
          }
        }
      }
      attr {
        key: "dtypes"
        value {
          list {
            type: DT_FLOAT
          }
        }
      }
    }
    node {
      name: "save_1/Assign_15"
      op: "Assign"
      input: "conv2d_2/bias/Adam"
      input: "save_1/RestoreV2_15"
      attr {
        key: "T"
        value {
          type: DT_FLOAT
        }
      }
      attr {
        key: "_class"
        value {
          list {
            s: "loc:@conv2d_2/bias"
          }
        }
      }
      attr {
        key: "_output_shapes"
        value {
          list {
            shape {
              dim {
                size: 32
              }
            }
          }
        }
      }
      attr {
        key: "use_locking"
        value {
          b: true
        }
      }
      attr {
        key: "validate_shape"
        value {
          b: true
        }
      }
    }
    node {
      name: "save_1/RestoreV2_16/tensor_names"
      op: "Const"
      attr {
        key: "_output_shapes"
        value {
          list {
            shape {
              dim {
                size: 1
              }
            }
          }
        }
      }
      attr {
        key: "dtype"
        value {
          type: DT_STRING
        }
      }
      attr {
        key: "value"
        value {
          tensor {
            dtype: DT_STRING
            tensor_shape {
              dim {
                size: 1
              }
            }
            string_val: "conv2d_2/bias/Adam_1"
          }
        }
      }
    }
    node {
      name: "save_1/RestoreV2_16/shape_and_slices"
      op: "Const"
      attr {
        key: "_output_shapes"
        value {
          list {
            shape {
              dim {
                size: 1
              }
            }
          }
        }
      }
      attr {
        key: "dtype"
        value {
          type: DT_STRING
        }
      }
      attr {
        key: "value"
        value {
          tensor {
            dtype: DT_STRING
            tensor_shape {
              dim {
                size: 1
              }
            }
            string_val: ""
          }
        }
      }
    }
    node {
      name: "save_1/RestoreV2_16"
      op: "RestoreV2"
      input: "save_1/Const"
      input: "save_1/RestoreV2_16/tensor_names"
      input: "save_1/RestoreV2_16/shape_and_slices"
      attr {
        key: "_output_shapes"
        value {
          list {
            shape {
              unknown_rank: true
            }
          }
        }
      }
      attr {
        key: "dtypes"
        value {
          list {
            type: DT_FLOAT
          }
        }
      }
    }
    node {
      name: "save_1/Assign_16"
      op: "Assign"
      input: "conv2d_2/bias/Adam_1"
      input: "save_1/RestoreV2_16"
      attr {
        key: "T"
        value {
          type: DT_FLOAT
        }
      }
      attr {
        key: "_class"
        value {
          list {
            s: "loc:@conv2d_2/bias"
          }
        }
      }
      attr {
        key: "_output_shapes"
        value {
          list {
            shape {
              dim {
                size: 32
              }
            }
          }
        }
      }
      attr {
        key: "use_locking"
        value {
          b: true
        }
      }
      attr {
        key: "validate_shape"
        value {
          b: true
        }
      }
    }
    node {
      name: "save_1/RestoreV2_17/tensor_names"
      op: "Const"
      attr {
        key: "_output_shapes"
        value {
          list {
            shape {
              dim {
                size: 1
              }
            }
          }
        }
      }
      attr {
        key: "dtype"
        value {
          type: DT_STRING
        }
      }
      attr {
        key: "value"
        value {
          tensor {
            dtype: DT_STRING
            tensor_shape {
              dim {
                size: 1
              }
            }
            string_val: "conv2d_2/kernel"
          }
        }
      }
    }
    node {
      name: "save_1/RestoreV2_17/shape_and_slices"
      op: "Const"
      attr {
        key: "_output_shapes"
        value {
          list {
            shape {
              dim {
                size: 1
              }
            }
          }
        }
      }
      attr {
        key: "dtype"
        value {
          type: DT_STRING
        }
      }
      attr {
        key: "value"
        value {
          tensor {
            dtype: DT_STRING
            tensor_shape {
              dim {
                size: 1
              }
            }
            string_val: ""
          }
        }
      }
    }
    node {
      name: "save_1/RestoreV2_17"
      op: "RestoreV2"
      input: "save_1/Const"
      input: "save_1/RestoreV2_17/tensor_names"
      input: "save_1/RestoreV2_17/shape_and_slices"
      attr {
        key: "_output_shapes"
        value {
          list {
            shape {
              unknown_rank: true
            }
          }
        }
      }
      attr {
        key: "dtypes"
        value {
          list {
            type: DT_FLOAT
          }
        }
      }
    }
    node {
      name: "save_1/Assign_17"
      op: "Assign"
      input: "conv2d_2/kernel"
      input: "save_1/RestoreV2_17"
      attr {
        key: "T"
        value {
          type: DT_FLOAT
        }
      }
      attr {
        key: "_class"
        value {
          list {
            s: "loc:@conv2d_2/kernel"
          }
        }
      }
      attr {
        key: "_output_shapes"
        value {
          list {
            shape {
              dim {
                size: 1
              }
              dim {
                size: 5
              }
              dim {
                size: 32
              }
              dim {
                size: 32
              }
            }
          }
        }
      }
      attr {
        key: "use_locking"
        value {
          b: true
        }
      }
      attr {
        key: "validate_shape"
        value {
          b: true
        }
      }
    }
    node {
      name: "save_1/RestoreV2_18/tensor_names"
      op: "Const"
      attr {
        key: "_output_shapes"
        value {
          list {
            shape {
              dim {
                size: 1
              }
            }
          }
        }
      }
      attr {
        key: "dtype"
        value {
          type: DT_STRING
        }
      }
      attr {
        key: "value"
        value {
          tensor {
            dtype: DT_STRING
            tensor_shape {
              dim {
                size: 1
              }
            }
            string_val: "conv2d_2/kernel/Adam"
          }
        }
      }
    }
    node {
      name: "save_1/RestoreV2_18/shape_and_slices"
      op: "Const"
      attr {
        key: "_output_shapes"
        value {
          list {
            shape {
              dim {
                size: 1
              }
            }
          }
        }
      }
      attr {
        key: "dtype"
        value {
          type: DT_STRING
        }
      }
      attr {
        key: "value"
        value {
          tensor {
            dtype: DT_STRING
            tensor_shape {
              dim {
                size: 1
              }
            }
            string_val: ""
          }
        }
      }
    }
    node {
      name: "save_1/RestoreV2_18"
      op: "RestoreV2"
      input: "save_1/Const"
      input: "save_1/RestoreV2_18/tensor_names"
      input: "save_1/RestoreV2_18/shape_and_slices"
      attr {
        key: "_output_shapes"
        value {
          list {
            shape {
              unknown_rank: true
            }
          }
        }
      }
      attr {
        key: "dtypes"
        value {
          list {
            type: DT_FLOAT
          }
        }
      }
    }
    node {
      name: "save_1/Assign_18"
      op: "Assign"
      input: "conv2d_2/kernel/Adam"
      input: "save_1/RestoreV2_18"
      attr {
        key: "T"
        value {
          type: DT_FLOAT
        }
      }
      attr {
        key: "_class"
        value {
          list {
            s: "loc:@conv2d_2/kernel"
          }
        }
      }
      attr {
        key: "_output_shapes"
        value {
          list {
            shape {
              dim {
                size: 1
              }
              dim {
                size: 5
              }
              dim {
                size: 32
              }
              dim {
                size: 32
              }
            }
          }
        }
      }
      attr {
        key: "use_locking"
        value {
          b: true
        }
      }
      attr {
        key: "validate_shape"
        value {
          b: true
        }
      }
    }
    node {
      name: "save_1/RestoreV2_19/tensor_names"
      op: "Const"
      attr {
        key: "_output_shapes"
        value {
          list {
            shape {
              dim {
                size: 1
              }
            }
          }
        }
      }
      attr {
        key: "dtype"
        value {
          type: DT_STRING
        }
      }
      attr {
        key: "value"
        value {
          tensor {
            dtype: DT_STRING
            tensor_shape {
              dim {
                size: 1
              }
            }
            string_val: "conv2d_2/kernel/Adam_1"
          }
        }
      }
    }
    node {
      name: "save_1/RestoreV2_19/shape_and_slices"
      op: "Const"
      attr {
        key: "_output_shapes"
        value {
          list {
            shape {
              dim {
                size: 1
              }
            }
          }
        }
      }
      attr {
        key: "dtype"
        value {
          type: DT_STRING
        }
      }
      attr {
        key: "value"
        value {
          tensor {
            dtype: DT_STRING
            tensor_shape {
              dim {
                size: 1
              }
            }
            string_val: ""
          }
        }
      }
    }
    node {
      name: "save_1/RestoreV2_19"
      op: "RestoreV2"
      input: "save_1/Const"
      input: "save_1/RestoreV2_19/tensor_names"
      input: "save_1/RestoreV2_19/shape_and_slices"
      attr {
        key: "_output_shapes"
        value {
          list {
            shape {
              unknown_rank: true
            }
          }
        }
      }
      attr {
        key: "dtypes"
        value {
          list {
            type: DT_FLOAT
          }
        }
      }
    }
    node {
      name: "save_1/Assign_19"
      op: "Assign"
      input: "conv2d_2/kernel/Adam_1"
      input: "save_1/RestoreV2_19"
      attr {
        key: "T"
        value {
          type: DT_FLOAT
        }
      }
      attr {
        key: "_class"
        value {
          list {
            s: "loc:@conv2d_2/kernel"
          }
        }
      }
      attr {
        key: "_output_shapes"
        value {
          list {
            shape {
              dim {
                size: 1
              }
              dim {
                size: 5
              }
              dim {
                size: 32
              }
              dim {
                size: 32
              }
            }
          }
        }
      }
      attr {
        key: "use_locking"
        value {
          b: true
        }
      }
      attr {
        key: "validate_shape"
        value {
          b: true
        }
      }
    }
    node {
      name: "save_1/RestoreV2_20/tensor_names"
      op: "Const"
      attr {
        key: "_output_shapes"
        value {
          list {
            shape {
              dim {
                size: 1
              }
            }
          }
        }
      }
      attr {
        key: "dtype"
        value {
          type: DT_STRING
        }
      }
      attr {
        key: "value"
        value {
          tensor {
            dtype: DT_STRING
            tensor_shape {
              dim {
                size: 1
              }
            }
            string_val: "output_b1"
          }
        }
      }
    }
    node {
      name: "save_1/RestoreV2_20/shape_and_slices"
      op: "Const"
      attr {
        key: "_output_shapes"
        value {
          list {
            shape {
              dim {
                size: 1
              }
            }
          }
        }
      }
      attr {
        key: "dtype"
        value {
          type: DT_STRING
        }
      }
      attr {
        key: "value"
        value {
          tensor {
            dtype: DT_STRING
            tensor_shape {
              dim {
                size: 1
              }
            }
            string_val: ""
          }
        }
      }
    }
    node {
      name: "save_1/RestoreV2_20"
      op: "RestoreV2"
      input: "save_1/Const"
      input: "save_1/RestoreV2_20/tensor_names"
      input: "save_1/RestoreV2_20/shape_and_slices"
      attr {
        key: "_output_shapes"
        value {
          list {
            shape {
              unknown_rank: true
            }
          }
        }
      }
      attr {
        key: "dtypes"
        value {
          list {
            type: DT_FLOAT
          }
        }
      }
    }
    node {
      name: "save_1/Assign_20"
      op: "Assign"
      input: "output_b1"
      input: "save_1/RestoreV2_20"
      attr {
        key: "T"
        value {
          type: DT_FLOAT
        }
      }
      attr {
        key: "_class"
        value {
          list {
            s: "loc:@output_b1"
          }
        }
      }
      attr {
        key: "_output_shapes"
        value {
          list {
            shape {
              dim {
                size: 112
              }
            }
          }
        }
      }
      attr {
        key: "use_locking"
        value {
          b: true
        }
      }
      attr {
        key: "validate_shape"
        value {
          b: true
        }
      }
    }
    node {
      name: "save_1/RestoreV2_21/tensor_names"
      op: "Const"
      attr {
        key: "_output_shapes"
        value {
          list {
            shape {
              dim {
                size: 1
              }
            }
          }
        }
      }
      attr {
        key: "dtype"
        value {
          type: DT_STRING
        }
      }
      attr {
        key: "value"
        value {
          tensor {
            dtype: DT_STRING
            tensor_shape {
              dim {
                size: 1
              }
            }
            string_val: "output_b1/Adam"
          }
        }
      }
    }
    node {
      name: "save_1/RestoreV2_21/shape_and_slices"
      op: "Const"
      attr {
        key: "_output_shapes"
        value {
          list {
            shape {
              dim {
                size: 1
              }
            }
          }
        }
      }
      attr {
        key: "dtype"
        value {
          type: DT_STRING
        }
      }
      attr {
        key: "value"
        value {
          tensor {
            dtype: DT_STRING
            tensor_shape {
              dim {
                size: 1
              }
            }
            string_val: ""
          }
        }
      }
    }
    node {
      name: "save_1/RestoreV2_21"
      op: "RestoreV2"
      input: "save_1/Const"
      input: "save_1/RestoreV2_21/tensor_names"
      input: "save_1/RestoreV2_21/shape_and_slices"
      attr {
        key: "_output_shapes"
        value {
          list {
            shape {
              unknown_rank: true
            }
          }
        }
      }
      attr {
        key: "dtypes"
        value {
          list {
            type: DT_FLOAT
          }
        }
      }
    }
    node {
      name: "save_1/Assign_21"
      op: "Assign"
      input: "output_b1/Adam"
      input: "save_1/RestoreV2_21"
      attr {
        key: "T"
        value {
          type: DT_FLOAT
        }
      }
      attr {
        key: "_class"
        value {
          list {
            s: "loc:@output_b1"
          }
        }
      }
      attr {
        key: "_output_shapes"
        value {
          list {
            shape {
              dim {
                size: 112
              }
            }
          }
        }
      }
      attr {
        key: "use_locking"
        value {
          b: true
        }
      }
      attr {
        key: "validate_shape"
        value {
          b: true
        }
      }
    }
    node {
      name: "save_1/RestoreV2_22/tensor_names"
      op: "Const"
      attr {
        key: "_output_shapes"
        value {
          list {
            shape {
              dim {
                size: 1
              }
            }
          }
        }
      }
      attr {
        key: "dtype"
        value {
          type: DT_STRING
        }
      }
      attr {
        key: "value"
        value {
          tensor {
            dtype: DT_STRING
            tensor_shape {
              dim {
                size: 1
              }
            }
            string_val: "output_b1/Adam_1"
          }
        }
      }
    }
    node {
      name: "save_1/RestoreV2_22/shape_and_slices"
      op: "Const"
      attr {
        key: "_output_shapes"
        value {
          list {
            shape {
              dim {
                size: 1
              }
            }
          }
        }
      }
      attr {
        key: "dtype"
        value {
          type: DT_STRING
        }
      }
      attr {
        key: "value"
        value {
          tensor {
            dtype: DT_STRING
            tensor_shape {
              dim {
                size: 1
              }
            }
            string_val: ""
          }
        }
      }
    }
    node {
      name: "save_1/RestoreV2_22"
      op: "RestoreV2"
      input: "save_1/Const"
      input: "save_1/RestoreV2_22/tensor_names"
      input: "save_1/RestoreV2_22/shape_and_slices"
      attr {
        key: "_output_shapes"
        value {
          list {
            shape {
              unknown_rank: true
            }
          }
        }
      }
      attr {
        key: "dtypes"
        value {
          list {
            type: DT_FLOAT
          }
        }
      }
    }
    node {
      name: "save_1/Assign_22"
      op: "Assign"
      input: "output_b1/Adam_1"
      input: "save_1/RestoreV2_22"
      attr {
        key: "T"
        value {
          type: DT_FLOAT
        }
      }
      attr {
        key: "_class"
        value {
          list {
            s: "loc:@output_b1"
          }
        }
      }
      attr {
        key: "_output_shapes"
        value {
          list {
            shape {
              dim {
                size: 112
              }
            }
          }
        }
      }
      attr {
        key: "use_locking"
        value {
          b: true
        }
      }
      attr {
        key: "validate_shape"
        value {
          b: true
        }
      }
    }
    node {
      name: "save_1/RestoreV2_23/tensor_names"
      op: "Const"
      attr {
        key: "_output_shapes"
        value {
          list {
            shape {
              dim {
                size: 1
              }
            }
          }
        }
      }
      attr {
        key: "dtype"
        value {
          type: DT_STRING
        }
      }
      attr {
        key: "value"
        value {
          tensor {
            dtype: DT_STRING
            tensor_shape {
              dim {
                size: 1
              }
            }
            string_val: "output_w1"
          }
        }
      }
    }
    node {
      name: "save_1/RestoreV2_23/shape_and_slices"
      op: "Const"
      attr {
        key: "_output_shapes"
        value {
          list {
            shape {
              dim {
                size: 1
              }
            }
          }
        }
      }
      attr {
        key: "dtype"
        value {
          type: DT_STRING
        }
      }
      attr {
        key: "value"
        value {
          tensor {
            dtype: DT_STRING
            tensor_shape {
              dim {
                size: 1
              }
            }
            string_val: ""
          }
        }
      }
    }
    node {
      name: "save_1/RestoreV2_23"
      op: "RestoreV2"
      input: "save_1/Const"
      input: "save_1/RestoreV2_23/tensor_names"
      input: "save_1/RestoreV2_23/shape_and_slices"
      attr {
        key: "_output_shapes"
        value {
          list {
            shape {
              unknown_rank: true
            }
          }
        }
      }
      attr {
        key: "dtypes"
        value {
          list {
            type: DT_FLOAT
          }
        }
      }
    }
    node {
      name: "save_1/Assign_23"
      op: "Assign"
      input: "output_w1"
      input: "save_1/RestoreV2_23"
      attr {
        key: "T"
        value {
          type: DT_FLOAT
        }
      }
      attr {
        key: "_class"
        value {
          list {
            s: "loc:@output_w1"
          }
        }
      }
      attr {
        key: "_output_shapes"
        value {
          list {
            shape {
              dim {
                size: 960
              }
              dim {
                size: 112
              }
            }
          }
        }
      }
      attr {
        key: "use_locking"
        value {
          b: true
        }
      }
      attr {
        key: "validate_shape"
        value {
          b: true
        }
      }
    }
    node {
      name: "save_1/RestoreV2_24/tensor_names"
      op: "Const"
      attr {
        key: "_output_shapes"
        value {
          list {
            shape {
              dim {
                size: 1
              }
            }
          }
        }
      }
      attr {
        key: "dtype"
        value {
          type: DT_STRING
        }
      }
      attr {
        key: "value"
        value {
          tensor {
            dtype: DT_STRING
            tensor_shape {
              dim {
                size: 1
              }
            }
            string_val: "output_w1/Adam"
          }
        }
      }
    }
    node {
      name: "save_1/RestoreV2_24/shape_and_slices"
      op: "Const"
      attr {
        key: "_output_shapes"
        value {
          list {
            shape {
              dim {
                size: 1
              }
            }
          }
        }
      }
      attr {
        key: "dtype"
        value {
          type: DT_STRING
        }
      }
      attr {
        key: "value"
        value {
          tensor {
            dtype: DT_STRING
            tensor_shape {
              dim {
                size: 1
              }
            }
            string_val: ""
          }
        }
      }
    }
    node {
      name: "save_1/RestoreV2_24"
      op: "RestoreV2"
      input: "save_1/Const"
      input: "save_1/RestoreV2_24/tensor_names"
      input: "save_1/RestoreV2_24/shape_and_slices"
      attr {
        key: "_output_shapes"
        value {
          list {
            shape {
              unknown_rank: true
            }
          }
        }
      }
      attr {
        key: "dtypes"
        value {
          list {
            type: DT_FLOAT
          }
        }
      }
    }
    node {
      name: "save_1/Assign_24"
      op: "Assign"
      input: "output_w1/Adam"
      input: "save_1/RestoreV2_24"
      attr {
        key: "T"
        value {
          type: DT_FLOAT
        }
      }
      attr {
        key: "_class"
        value {
          list {
            s: "loc:@output_w1"
          }
        }
      }
      attr {
        key: "_output_shapes"
        value {
          list {
            shape {
              dim {
                size: 960
              }
              dim {
                size: 112
              }
            }
          }
        }
      }
      attr {
        key: "use_locking"
        value {
          b: true
        }
      }
      attr {
        key: "validate_shape"
        value {
          b: true
        }
      }
    }
    node {
      name: "save_1/RestoreV2_25/tensor_names"
      op: "Const"
      attr {
        key: "_output_shapes"
        value {
          list {
            shape {
              dim {
                size: 1
              }
            }
          }
        }
      }
      attr {
        key: "dtype"
        value {
          type: DT_STRING
        }
      }
      attr {
        key: "value"
        value {
          tensor {
            dtype: DT_STRING
            tensor_shape {
              dim {
                size: 1
              }
            }
            string_val: "output_w1/Adam_1"
          }
        }
      }
    }
    node {
      name: "save_1/RestoreV2_25/shape_and_slices"
      op: "Const"
      attr {
        key: "_output_shapes"
        value {
          list {
            shape {
              dim {
                size: 1
              }
            }
          }
        }
      }
      attr {
        key: "dtype"
        value {
          type: DT_STRING
        }
      }
      attr {
        key: "value"
        value {
          tensor {
            dtype: DT_STRING
            tensor_shape {
              dim {
                size: 1
              }
            }
            string_val: ""
          }
        }
      }
    }
    node {
      name: "save_1/RestoreV2_25"
      op: "RestoreV2"
      input: "save_1/Const"
      input: "save_1/RestoreV2_25/tensor_names"
      input: "save_1/RestoreV2_25/shape_and_slices"
      attr {
        key: "_output_shapes"
        value {
          list {
            shape {
              unknown_rank: true
            }
          }
        }
      }
      attr {
        key: "dtypes"
        value {
          list {
            type: DT_FLOAT
          }
        }
      }
    }
    node {
      name: "save_1/Assign_25"
      op: "Assign"
      input: "output_w1/Adam_1"
      input: "save_1/RestoreV2_25"
      attr {
        key: "T"
        value {
          type: DT_FLOAT
        }
      }
      attr {
        key: "_class"
        value {
          list {
            s: "loc:@output_w1"
          }
        }
      }
      attr {
        key: "_output_shapes"
        value {
          list {
            shape {
              dim {
                size: 960
              }
              dim {
                size: 112
              }
            }
          }
        }
      }
      attr {
        key: "use_locking"
        value {
          b: true
        }
      }
      attr {
        key: "validate_shape"
        value {
          b: true
        }
      }
    }
    node {
      name: "save_1/restore_shard"
      op: "NoOp"
      input: "^save_1/Assign"
      input: "^save_1/Assign_1"
      input: "^save_1/Assign_2"
      input: "^save_1/Assign_3"
      input: "^save_1/Assign_4"
      input: "^save_1/Assign_5"
      input: "^save_1/Assign_6"
      input: "^save_1/Assign_7"
      input: "^save_1/Assign_8"
      input: "^save_1/Assign_9"
      input: "^save_1/Assign_10"
      input: "^save_1/Assign_11"
      input: "^save_1/Assign_12"
      input: "^save_1/Assign_13"
      input: "^save_1/Assign_14"
      input: "^save_1/Assign_15"
      input: "^save_1/Assign_16"
      input: "^save_1/Assign_17"
      input: "^save_1/Assign_18"
      input: "^save_1/Assign_19"
      input: "^save_1/Assign_20"
      input: "^save_1/Assign_21"
      input: "^save_1/Assign_22"
      input: "^save_1/Assign_23"
      input: "^save_1/Assign_24"
      input: "^save_1/Assign_25"
    }
    node {
      name: "save_1/restore_all"
      op: "NoOp"
      input: "^save_1/restore_shard"
    }
    versions {
      producer: 24
    }
  }
  saver_def {
    filename_tensor_name: "save_1/Const:0"
    save_tensor_name: "save_1/Identity:0"
    restore_op_name: "save_1/restore_all"
    max_to_keep: 5
    sharded: true
    keep_checkpoint_every_n_hours: 10000.0
    version: V2
  }
  collection_def {
    key: "local_variables"
    value {
      bytes_list {
        value: "\n\nVariable:0\022\017Variable/Assign\032\017Variable/read:0"
        value: "\n\014Variable_1:0\022\021Variable_1/Assign\032\021Variable_1/read:0"
      }
    }
  }
  collection_def {
    key: "train_op"
    value {
      node_list {
        value: "Adam"
      }
    }
  }
  collection_def {
    key: "trainable_variables"
    value {
      bytes_list {
        value: "\n\017conv2d/kernel:0\022\024conv2d/kernel/Assign\032\024conv2d/kernel/read:0"
        value: "\n\rconv2d/bias:0\022\022conv2d/bias/Assign\032\022conv2d/bias/read:0"
        value: "\n\021conv2d_1/kernel:0\022\026conv2d_1/kernel/Assign\032\026conv2d_1/kernel/read:0"
        value: "\n\017conv2d_1/bias:0\022\024conv2d_1/bias/Assign\032\024conv2d_1/bias/read:0"
        value: "\n\021conv2d_2/kernel:0\022\026conv2d_2/kernel/Assign\032\026conv2d_2/kernel/read:0"
        value: "\n\017conv2d_2/bias:0\022\024conv2d_2/bias/Assign\032\024conv2d_2/bias/read:0"
        value: "\n\013output_w1:0\022\020output_w1/Assign\032\020output_w1/read:0"
        value: "\n\013output_b1:0\022\020output_b1/Assign\032\020output_b1/read:0"
      }
    }
  }
  collection_def {
    key: "variables"
    value {
      bytes_list {
        value: "\n\017conv2d/kernel:0\022\024conv2d/kernel/Assign\032\024conv2d/kernel/read:0"
        value: "\n\rconv2d/bias:0\022\022conv2d/bias/Assign\032\022conv2d/bias/read:0"
        value: "\n\021conv2d_1/kernel:0\022\026conv2d_1/kernel/Assign\032\026conv2d_1/kernel/read:0"
        value: "\n\017conv2d_1/bias:0\022\024conv2d_1/bias/Assign\032\024conv2d_1/bias/read:0"
        value: "\n\021conv2d_2/kernel:0\022\026conv2d_2/kernel/Assign\032\026conv2d_2/kernel/read:0"
        value: "\n\017conv2d_2/bias:0\022\024conv2d_2/bias/Assign\032\024conv2d_2/bias/read:0"
        value: "\n\013output_w1:0\022\020output_w1/Assign\032\020output_w1/read:0"
        value: "\n\013output_b1:0\022\020output_b1/Assign\032\020output_b1/read:0"
        value: "\n\rbeta1_power:0\022\022beta1_power/Assign\032\022beta1_power/read:0"
        value: "\n\rbeta2_power:0\022\022beta2_power/Assign\032\022beta2_power/read:0"
        value: "\n\024conv2d/kernel/Adam:0\022\031conv2d/kernel/Adam/Assign\032\031conv2d/kernel/Adam/read:0"
        value: "\n\026conv2d/kernel/Adam_1:0\022\033conv2d/kernel/Adam_1/Assign\032\033conv2d/kernel/Adam_1/read:0"
        value: "\n\022conv2d/bias/Adam:0\022\027conv2d/bias/Adam/Assign\032\027conv2d/bias/Adam/read:0"
        value: "\n\024conv2d/bias/Adam_1:0\022\031conv2d/bias/Adam_1/Assign\032\031conv2d/bias/Adam_1/read:0"
        value: "\n\026conv2d_1/kernel/Adam:0\022\033conv2d_1/kernel/Adam/Assign\032\033conv2d_1/kernel/Adam/read:0"
        value: "\n\030conv2d_1/kernel/Adam_1:0\022\035conv2d_1/kernel/Adam_1/Assign\032\035conv2d_1/kernel/Adam_1/read:0"
        value: "\n\024conv2d_1/bias/Adam:0\022\031conv2d_1/bias/Adam/Assign\032\031conv2d_1/bias/Adam/read:0"
        value: "\n\026conv2d_1/bias/Adam_1:0\022\033conv2d_1/bias/Adam_1/Assign\032\033conv2d_1/bias/Adam_1/read:0"
        value: "\n\026conv2d_2/kernel/Adam:0\022\033conv2d_2/kernel/Adam/Assign\032\033conv2d_2/kernel/Adam/read:0"
        value: "\n\030conv2d_2/kernel/Adam_1:0\022\035conv2d_2/kernel/Adam_1/Assign\032\035conv2d_2/kernel/Adam_1/read:0"
        value: "\n\024conv2d_2/bias/Adam:0\022\031conv2d_2/bias/Adam/Assign\032\031conv2d_2/bias/Adam/read:0"
        value: "\n\026conv2d_2/bias/Adam_1:0\022\033conv2d_2/bias/Adam_1/Assign\032\033conv2d_2/bias/Adam_1/read:0"
        value: "\n\020output_w1/Adam:0\022\025output_w1/Adam/Assign\032\025output_w1/Adam/read:0"
        value: "\n\022output_w1/Adam_1:0\022\027output_w1/Adam_1/Assign\032\027output_w1/Adam_1/read:0"
        value: "\n\020output_b1/Adam:0\022\025output_b1/Adam/Assign\032\025output_b1/Adam/read:0"
        value: "\n\022output_b1/Adam_1:0\022\027output_b1/Adam_1/Assign\032\027output_b1/Adam_1/read:0"
      }
    }
  }
}
